Forward UFA LSTM RAW INPUT.pt (torch, 201602 bytes, 10 tensors)

initialLayer.weight f8 [50, 32]
000000 d8 0e 4f a5 c4 72 c4 bf 2c e2 ff 66 95 7c ac bf
       -0.15975244590492 -0.05563799745863593
000010 3f 11 c5 c2 80 e4 9e 3f 23 ce 13 6a ed 44 a9 3f
       0.03016854466228946 0.04935399932756137
000020 d0 40 2d 5e 9d 14 ab 3f 3b 56 48 8d c2 0f bb bf
       0.05289165281885888 -0.10570922803193465
000030 5e b4 ff 67 15 dd c4 bf 7e a5 37 41 36 c4 91 bf
       -0.16299693658894204 -0.017350051622917466
000040 20 6e 76 fd 16 21 60 3f f3 eb d8 d9 34 77 cb bf
       0.0019689034485972506 -0.21457539212300922
000050 64 2a 29 0e e3 7f 9d bf 22 a6 cd 3b 05 3e 95 bf
       -0.028808162440592602 -0.020744401717285872
000060 cb 5c 7e d5 90 40 b9 bf e9 f8 75 fe 0b 2c b8 bf
       -0.09864144527670075 -0.0944221016161212
000070 7b a5 c7 a0 98 11 b8 bf d0 a2 68 77 b7 84 a0 bf
       -0.0940184967545487 -0.03226254780412818
000080 0d 39 05 9a df 56 b0 bf f9 5b 43 e5 e8 e2 c3 bf
       -0.0638255835558292 -0.15536223597038637
000090 ae 6c f8 f9 d1 d6 b8 3f f4 36 c9 f6 45 93 be bf
       0.09702789643090412 -0.11943471217201901
0000a0 81 26 a1 52 4e d0 66 3f d6 52 ce cb cc 53 9f bf
       0.0027848748914365844 -0.030593109072998136
0000b0 dd 42 fb 6e bd b2 a4 3f 08 c7 7a 92 95 a7 bf bf
       0.040426177785439533 -0.12365088297044846
0000c0 ac 52 95 1b 14 51 be 3f 13 81 b4 95 8a 9e b8 bf
       0.1184246604291938 -0.09616914896878752
0000d0 55 75 0a 36 6e 6b 94 3f 18 1d 52 1d 01 d9 97 bf
       0.019941064880744836 -0.023288743414494467
0000e0 7b c6 c3 d7 c7 83 9f 3f 74 66 b1 e2 fb b1 a4 3f
       0.0307761407320357 0.04042040960548557
0000f0 72 64 b4 3c 81 b6 bd bf 4f d6 76 34 7b 1b b3 bf
       -0.11606605274245554 -0.0746380808912701
000100 f2 07 42 1a 16 93 c1 3f ee e8 aa 53 19 44 b4 bf
       0.13730121881604834 -0.07916410725275444
000110 39 d3 a5 5f 2e 72 b0 bf af ad f0 38 68 a1 89 3f
       -0.06424226603651285 0.01251489089744137
000120 3b 7b 30 ef 2e 31 c0 bf 34 35 74 65 e3 de 94 bf
       -0.1265009563366791 -0.020381501261956106
000130 35 e0 5b e8 b1 4a 92 3f 66 c3 54 fe 30 6f 7f 3f
       0.017863063628255033 0.007674399739060122
000140 e6 51 8c ab e8 48 ae bf da f9 e8 7c 08 fb 6b bf
       -0.05915000051587409 -0.003415600374210498
000150 2b d8 bb a2 e7 6e b0 3f e4 3d d1 77 16 a1 a5 3f
       0.06419227335922588 0.04224462711919921
000160 7b 27 00 8c de 04 a8 3f 42 62 cb 61 af fe b8 bf
       0.046912149991910256 -0.09763618600425963
000170 aa 74 bf a7 7f 47 97 3f ef 95 76 5b 89 bd 65 bf
       0.022733683217542357 -0.002653854633268386
000180 f2 e4 5a f8 61 3a b9 bf 0d 7d 58 6b 79 dc bb 3f
       -0.09854709924083574 0.1088329207491265
000190 09 74 ed 68 8a 7c c0 bf b7 e7 85 da 97 56 ad bf
       -0.12880067943015686 -0.057301278519801206
0001a0 a3 c8 e1 74 c5 c7 a6 bf dc 36 12 f5 9f 6e b5 bf
       -0.044492884176081014 -0.08371925099546779
0001b0 8f 6d 90 a0 e8 09 c0 3f ec 9e a7 90 e7 67 c7 bf
       0.12530238952681969 -0.18285841525288704
0001c0 14 ef 63 21 d3 bd a3 bf 58 ab 59 59 b6 6e ba bf
       -0.03855762274358035 -0.10325183564570517
0001d0 87 15 1a ba 13 06 bb bf 04 36 4c 59 c8 55 c5 bf
       -0.1055614785528488 -0.16668037758101673
0001e0 87 0e 9c b8 fb 30 b8 3f 5a 91 ab d6 58 2d 98 bf
       0.09449742562360984 -0.023610485174587616
0001f0 de b0 ab d5 25 cf c2 bf a2 d5 74 5d b5 29 b9 bf
       -0.14694664891374648 -0.09829267055177707
000200 e8 60 b9 07 a7 6f 92 bf 74 a7 df 26 9e 09 95 3f
       -0.018004045340007574 0.020544501421603426
000210 72 7d a1 43 d2 69 a4 bf e8 cd 44 6e 49 84 be 3f
       -0.03986985278674639 0.11920603696926657
000220 a9 dc 38 23 e4 9c aa 3f 4e 48 e0 55 d4 d6 ac bf
       0.05197823457677348 -0.05632651851932789
000230 67 2f f0 64 17 8f a8 bf 8b be bf d8 e8 ec 83 bf
       -0.04796670062213942 -0.009729212870268419
000240 51 e2 5e 01 79 f8 c0 3f 62 7d f0 14 50 e5 be 3f
       0.13258278433729 0.12068653594223158
000250 7b 6a 1a 61 73 69 b2 bf b2 8f 82 ae 78 b8 80 3f
       -0.07192154999430926 0.008164351297018733
000260 87 a0 a0 dd 39 92 c1 bf dc c7 8f 34 19 a5 55 bf
       -0.1372749645390778 -0.0013211008210842678
000270 cf e7 f4 e0 1b 7d 42 bf 50 6c 11 6b 0e 84 a5 3f
       -0.0005642305494923896 0.04202313477500097
000280 68 c7 bd 7c 7a 4c b0 bf 2a c9 0b df a2 c9 75 bf
       -0.06366696877901534 -0.005319248405373048
000290 83 45 2d b2 91 76 c2 3f 1b b0 25 fc 6c 43 8d 3f
       0.14424344253579244 0.0142887606095528
0002a0 59 84 69 53 67 08 b5 bf 3d dd c7 64 9c 1b b1 bf
       -0.08215947901182243 -0.06682755909411227
0002b0 52 5e 92 68 77 7c c1 bf 01 8f 8a d3 dd 33 41 3f
       -0.13661091428797306 0.0005249817978278671
0002c0 10 80 75 8f 3a 8c b4 bf 85 b4 a0 8b e7 7b b8 3f
       -0.08026472093979486 0.09564063223725057
0002d0 41 48 ad b8 35 80 ac bf b1 e6 40 6c 62 d7 7e 3f
       -0.055665663522305404 0.00752962538177264
0002e0 5e ca d4 3d 32 26 a5 3f cc 74 0b 68 84 71 c6 3f
       0.04130703930640743 0.17533927040395836
0002f0 aa f9 80 00 01 c3 a9 3f f3 47 a0 8f 40 f0 b5 bf
       0.05031588679456729 -0.08569720751282243
000300 ab 63 ff 2e 53 3f b3 3f 2c 3e 43 3d a0 ec b9 3f
       0.0751850118389387 0.10126687522574035
000310 e6 ce 34 48 c9 e8 c7 3f 4b a0 f4 6c 57 2c b2 3f
       0.18679157281586994 0.07098909769104116
000320 d2 f1 ce 13 5f 54 b6 3f f3 a8 af f7 80 01 bb bf
       0.08722490533450092 -0.10549169585252453
000330 18 f4 3b b1 02 ba c7 3f 0d b7 96 f3 04 d1 aa 3f
       0.18536409048093172 0.05237594102378127
000340 0e d0 79 aa 95 00 c7 3f 13 f1 da 13 31 65 71 bf
       0.17970534156813794 -0.00424689455911344
000350 32 d9 58 4c d1 ff a6 3f 0b 62 ba a3 c1 5f b1 3f
       0.04492048317881582 0.0678673767782884
000360 dc 06 a8 89 12 c3 70 bf b4 26 3c a3 21 63 66 3f
       -0.004092285550088195 0.0027328164086427246
000370 da 48 44 84 05 12 9d 3f 05 28 00 8d e8 cc 67 bf
       0.028389059255524575 -0.0029053251273625257
000380 c7 f1 fa 2b 25 71 bf bf 87 5b 1d a9 4a 77 88 3f
       -0.12282020877586951 0.011946280752153772
000390 0d 35 ea 13 78 57 c2 3f 29 c3 bc 03 a7 67 b6 3f
       0.14329434368520602 0.08751911011928527
0003a0 75 67 d3 54 00 75 c7 3f c0 ec bd 0c 7b 32 a7 bf
       0.183258096140715 -0.04530701189556785
0003b0 25 c0 69 ee 7f ef b9 3f d0 e3 35 22 eb 7b b0 3f
       0.10131072588569674 0.06439084611146417
0003c0 ce 2d f1 d1 e9 b8 7f bf 66 39 11 08 ed 16 b5 bf
       -0.007744706496918009 -0.08238107153849725
0003d0 f7 fe 2f 48 c5 e3 c1 3f 62 ad 3f 72 4b a0 a7 bf
       0.13976350807933333 -0.04614482659948284
0003e0 61 46 ce 23 4a 8d c1 bf c4 cc 01 f5 52 4d 9d 3f
       -0.1371243166764087 0.028615280345957186
0003f0 f5 8e 8e 84 59 3d c6 3f 1e 01 bd 2b 10 cf a0 3f
       0.1737472436189972 0.032829766596935026
000400 01 60 8c d4 e2 7b c4 3f a6 d5 f6 c0 cd e8 a4 3f
       0.16003070238434705 0.04083865147132863
000410 91 2d 8e 18 49 2c ba bf 59 c2 ca 66 5b e9 99 3f
       -0.10223824357506418 0.025304248951842776
000420 bd 61 86 0a bb fa bc 3f 47 2b b7 ed 2d 7d ab bf
       0.11320084578472396 -0.05368941809464061
000430 09 db f5 09 00 8c b9 3f d1 3e 2b e3 eb d2 62 bf
       0.09979248278783016 -0.0022978408027042115
000440 24 bd af fe db 36 73 bf 93 6d 14 73 18 65 ba bf
       -0.004690989832837365 -0.10310509500089031
000450 5e 90 31 23 d8 28 b7 3f 70 25 04 da d8 03 8b 3f
       0.09046698435992215 0.013190931466413786
000460 e9 cf fb d8 6e 21 a3 bf ad 18 fb 1e d7 2d 8a bf
       -0.03736444853521432 -0.01278274596496617
000470 c1 52 e5 f2 ed a8 ab 3f 95 3c 90 7c ab 68 94 bf
       0.05402320470844791 -0.019930533864734718
000480 6c 92 1e 47 2a e2 b1 3f c3 63 1f e0 9b 2d ba bf
       0.0698572562819863 -0.10225843641036562
000490 f0 15 31 ad aa 59 be 3f d7 83 46 2d eb 2d b4 3f
       0.11855570534051885 0.0788256631408467
0004a0 a3 67 8c fb 49 a5 c1 3f 7b 15 aa 22 7d fc b7 3f
       0.13785671980514022 0.09369642349527922
0004b0 ba a5 8d 89 b4 1a ad bf cb 7d 30 d8 b4 33 c3 3f
       -0.05684436968915514 0.1500154548275375
0004c0 00 ed 08 ea 63 49 c4 3f 41 58 8b db 42 4b a7 bf
       0.15848969390376766 -0.04549607210144347
0004d0 03 87 f1 48 44 6f a6 bf 88 a6 3b 81 9f 80 96 3f
       -0.043817647842628225 0.021975033056981036
0004e0 b8 ba f4 c5 6d 6a c3 3f cd e9 20 47 15 9a b8 bf
       0.15168544927424477 -0.09610112177407544
0004f0 f7 3f d0 95 85 f4 ad bf 85 cc cc 4f 86 22 b6 3f
       -0.05850617841508659 0.08646430443040927
000500 4e 2c 37 ae 1c 0f af 3f b5 e4 59 84 20 df b9 bf
       0.06066217066435141 -0.10106089812497283
000510 7b ba 16 be 04 0b ac bf ae 1f 7b 9c a4 0a a6 bf
       -0.054771564678380145 -0.043049949742964486
000520 21 98 cb ae 02 ab bb 3f 9a ab 08 e6 9e 74 ae 3f
       0.10807816283667694 0.05948349531202908
000530 c8 7e c3 94 42 ad a9 3f 8e 6a 1e 92 8f e3 b8 bf
       0.05014999452555241 -0.09722230260232775
000540 8a b3 11 c8 c1 db a2 3f 32 97 47 b0 1a 5b c7 bf
       0.03683286254167857 -0.18246778113751244
000550 af b9 e6 e9 66 a9 bc bf 90 44 6a bf b9 df c1 bf
       -0.11195986948471302 -0.1396400627750478
000560 6d 96 1c 99 07 8e 6b bf 85 f9 7e 0a 20 29 b4 bf
       -0.003363623466514912 -0.07875252014398455
000570 98 2b 4c 59 e6 c3 9e 3f e8 8d 4c 61 31 5a 60 3f
       0.0300441734316724 0.001996132321794287
000580 48 b3 55 76 0c b5 c1 bf 08 bf d1 41 dd f0 af bf
       -0.13833766725601948 -0.062384523663125135
000590 9c ae 2d db 09 bf 60 bf 97 55 2d 2b 19 ac 9e bf
       -0.00204421925575622 -0.0299533779719546
0005a0 ca 98 5a d2 d4 ad bf bf 78 30 26 a3 b7 f6 b6 bf
       -0.12374620566933739 -0.0897021077454968
0005b0 6c d4 6a 77 8d 20 b0 3f 00 0c 80 bf bd 7d c4 bf
       0.06299671330892104 -0.16008731699557188
0005c0 ae 56 4f ca 1e 91 b3 bf f5 b5 f7 53 fb bb b2 3f
       -0.07643310965735381 0.07318087387076118
0005d0 70 0b 04 5f fc 40 bc 3f b3 1c 91 31 88 74 97 bf
       0.11036660499307316 -0.02290547182590492
0005e0 47 00 8b 74 89 07 c1 3f dc 7b 97 41 0b 1a b4 3f
       0.13304250898909428 0.0785223994384831
0005f0 44 c1 2e 9c e9 6f c1 3f 42 06 bc 54 d4 70 c4 bf
       0.1362277996645479 -0.15969328057694737
000600 ec b3 5d 70 6c 4d bd bf 25 88 ad c5 38 84 ae bf
       -0.11446264022170255 -0.059602522020910244
000610 0d fe d9 99 48 97 bf bf d5 5a da 8d 1e b3 2b bf
       -0.12340215450421273 -0.0002113318250180548
000620 f5 36 e4 2f d4 bf c4 bf d1 db ae 24 ae 75 c0 bf
       -0.16210415209246035 -0.12859131613887922
000630 1f 72 33 b7 e6 d0 55 bf f2 84 d0 d9 ea 6c 7d bf
       -0.0013315442163764968 -0.0071839498387202706
000640 60 13 b2 0e f4 a6 93 3f f2 44 60 76 c4 18 c6 bf
       0.019191563984822024 -0.17263084201889672
000650 f3 28 3c a1 ca df ba bf 11 d7 1d 3c 4b d1 c2 bf
       -0.10497728763963092 -0.14701214251879738
000660 8b 2e 73 6f 23 4d a9 3f 8f 2d 2c 50 d7 03 9f bf
       0.049416644434669164 -0.03028809000811133
000670 dd e5 f7 f8 8d 0c 99 bf 1a 85 11 ca 8c ee a3 bf
       -0.024461954422781196 -0.03892936674743393
000680 5e 57 73 1a 60 1a b9 3f b6 7b c7 41 47 c2 a5 3f
       0.09805870672002245 0.04249785116166242
000690 10 25 dc 11 dd 98 bd 3f 92 8e be b2 a3 65 b0 bf
       0.11561376272233681 -0.06405089486957596
0006a0 b6 ef 02 04 35 fd b0 bf a1 01 47 c2 b6 f4 b0 bf
       -0.06636363361297878 -0.0662340378103239
0006b0 2b ef c2 2c 24 9c be 3f e7 9f 3f 94 1b 35 c8 bf
       0.1195700272828019 -0.1891207193250459
0006c0 99 32 19 63 e4 00 ba 3f e9 b9 2f 54 a4 2b b9 bf
       0.10157611293215964 -0.09832217269261147
0006d0 44 37 1d c6 0c 90 9a 3f 8d a0 e8 60 c0 93 c5 3f
       0.02594013175194411 0.16857151729459866
0006e0 c4 6e 84 95 80 9d ad bf 03 90 85 28 57 70 67 bf
       -0.05784227204477824 -0.0028611852941811135
0006f0 84 7a 65 ca 79 21 b4 bf 5e de 46 c3 ef ca b0 3f
       -0.07863579932516457 0.06559656636715647
000700 a3 fc 12 a6 c9 1d 9a bf bb df 92 ee 59 3a 91 3f
       -0.025504256020891913 0.01682415503157107
000710 e4 84 ce 7c 7c ec a9 3f 9e 3a a3 bf 71 f5 ab 3f
       0.050632372126764996 0.05460696663214047
000720 9c 47 87 9b 58 58 b0 3f 22 5c a6 ac f3 09 c0 bf
       0.0638480548580262 -0.12530370645683414
000730 fd db 59 90 0d 4c c8 bf 5a 0c e3 b0 c6 d5 95 bf
       -0.1898209528769427 -0.021323303743667622
000740 29 9b b3 39 24 34 b7 bf 34 2e a2 c1 fd db b7 bf
       -0.0906393662331594 -0.09320054986363219
000750 d1 5e 74 ab ce 34 79 3f b7 30 b6 47 35 99 b5 bf
       0.006153876594247002 -0.0843690204694124
000760 21 47 0b 4c f4 3f c3 bf c8 38 66 df e2 21 b7 bf
       -0.1503892298992975 -0.09036081270298546
000770 3e 34 4b 19 ef 94 c7 bf 54 00 58 37 d5 de 97 bf
       -0.18423260436103023 -0.023310977461733565
000780 1b 8d 25 78 ce eb ca bf 0d 83 fb fb 41 0f a5 3f
       -0.21032124392068216 0.04113203240354411
000790 6b a6 1e 64 14 d6 ca bf bd b5 7d 7d 90 71 bf bf
       -0.2096581925264219 -0.12282660545107311
0007a0 8d e9 0f ea 6d f8 b3 bf b6 33 7a 8b e1 fe b4 3f
       -0.07800948109062329 0.082014175941551
0007b0 38 d2 2f 0c 67 71 ba bf 2a d9 b1 35 d6 a7 c3 bf
       -0.10329288527993519 -0.15355947133839126
0007c0 ed b8 32 6a 71 56 aa bf 91 c2 0e 9c 0d 76 b7 bf
       -0.051440757955207285 -0.09164509830476165
0007d0 8b 81 af 7c 6f 22 b5 3f ff be 18 2c dd c3 93 3f
       0.08255669397431668 0.019301849190184402
0007e0 0b a5 69 fd 8b 0e a1 3f 56 58 bd ff 5a 65 c2 3f
       0.03331410854736746 0.1437181233147295
0007f0 b7 c5 f9 0b 8d b8 c1 bf 02 5d 85 18 75 c8 c9 bf
       -0.13844454846143403 -0.2014299745303348

initialLayer.bias f8 [50]
000000 ff 9b 54 23 1c 16 93 3f a6 e9 d8 2b 1a 27 c2 3f
       0.01863903012886325 0.14181830540640056
000010 3d 16 6a a9 ae c6 c1 bf c8 b3 4c 02 22 45 bc 3f
       -0.13887580177486028 0.11042988353865646
000020 88 74 7a a3 eb a8 c5 bf 42 be 86 6b 18 f8 b3 bf
       -0.16921754343357898 -0.0780043852344017
000030 5e b4 af 22 e9 b3 a4 bf 20 23 a0 3f 41 c2 ae 3f
       -0.04043510960023221 0.060075797097004946
000040 f8 72 16 5b cd 78 b0 bf 24 7d 04 49 8d 01 b7 bf
       -0.06434329484768486 -0.08986743004469538
000050 9c a2 d0 41 06 30 b0 3f a2 35 03 57 b4 53 a3 3f
       0.06323279482661309 0.03774798929371605
000060 96 cd 26 74 18 5e a6 3f 88 8a a7 91 84 5d c4 bf
       0.04368664186349773 -0.15910393821748792
000070 ae b5 8d 4f 3d 78 b4 3f 61 db 99 ce 07 28 c1 bf
       0.07995970909333636 -0.1340341337961162
000080 d1 10 c9 45 cd 31 c4 bf 2a 94 f3 48 10 d5 b2 3f
       -0.1577698317288481 0.07356359272996885
000090 45 c5 1f ae 7c 67 aa bf 72 8d b6 bb 9c 99 9b 3f
       -0.05157079339540841 0.026953171689127094
0000a0 b1 e5 db 18 c6 8a c0 3f 16 47 c5 c2 42 b1 ae 3f
       0.12923504079644269 0.059946142459592774
0000b0 bc e6 c3 16 dc d5 ba bf 9f d1 69 ed a0 9c 9e 3f
       -0.10482574039260845 0.02989436577850457
0000c0 3b d4 0c 92 36 87 b2 3f 15 50 ab 31 d9 8f af 3f
       0.07237568917919728 0.0616443513041817
0000d0 50 7e 6b 40 fa f3 c8 3f 14 0d 25 7d 1b f0 b0 3f
       0.19494560380461445 0.06616374783793716
0000e0 94 dc 83 e5 37 14 b1 3f 90 31 3c 2f 54 57 c0 3f
       0.0667147574748575 0.1276650648727693
0000f0 7c 20 44 3c bb 20 bb bf d5 85 df ec e3 d1 bc 3f
       -0.10596819135037266 0.1125776723197512
000100 f4 70 70 3b 4d 2d c8 bf ac fa c6 16 b5 ef c1 3f
       -0.18888249780946575 0.14012778865977304
000110 98 4f 74 d2 31 20 c0 bf 3a af 17 ee 7e 4f 96 bf
       -0.12598250175562664 -0.021787627489103324
000120 7e ed c3 6a a5 25 c5 3f 0c 40 bf 3f f4 f3 b4 3f
       0.16521136963988775 0.08184744411778427
000130 0e 8b fe 83 4c cc c4 3f 29 26 35 e0 0e 8d bc 3f
       0.16248470730814585 0.11152737592524233
000140 41 99 fe c7 b5 4c 90 bf b4 3b 47 44 fd ae b4 3f
       -0.01591762574357714 0.08079512516927317
000150 77 e5 31 3c 7c 94 5a bf e1 8f 94 eb c1 cc ab bf
       -0.0016223157151940817 -0.05429655075775464
000160 91 76 75 0d 23 a8 c0 3f 04 ef 4a d8 0c 50 ad 3f
       0.13013113171739524 0.05725135937015405
000170 cd 62 4b 08 19 84 c4 3f 35 da a0 40 a8 62 bf bf
       0.1602813044071553 -0.12259913995590284
000180 43 99 02 5c 0a 32 bb bf 97 e9 4f 2f b6 c5 9e 3f
       -0.10623230692235545 0.030051085126595458

LSTM.weight_ih_l0 f8 [200, 50]
000000 14 a2 b7 91 a1 31 4c bf d5 ed 6b 46 67 4d 0a 3f
       -0.0008604086792135001 5.016776485963394e-05
000010 7c 1e 06 83 a5 e6 1e 3f 20 25 1b cf 84 66 1c 3f
       0.000117877819098772 0.00010833917238097348
000020 42 4d 45 b7 a6 94 45 bf 98 f2 5a 62 f4 09 3a 3f
       -0.0006585897486196884 0.00039732185755862173
000030 bb 52 6f fc 2f da 3b 3f d5 56 9d 2e b9 5e 40 3f
       0.00042499228987695107 0.0004995731553474001
000040 90 7d eb 1c 52 49 54 bf 6e 6d 46 ba f8 b7 4b bf
       -0.00123818415493546 -0.0008459057321944915
000050 c6 4d 95 ae 56 20 32 3f 07 4c a9 96 03 f2 48 3f
       0.0002765857339756785 0.0007612721941064889
000060 48 db 1d 4c fc de 51 3f 53 b3 2e 23 97 3b 44 bf
       0.0010907615510100267 -0.0006174552894343356
000070 df ba 4c 08 a1 27 34 3f 47 80 22 f5 36 4c 51 bf
       0.0003075378556784257 -0.0010557686514758456
000080 fc d8 cc 99 b9 52 eb 3e b7 52 ae 23 cd 11 3e 3f
       1.3028690597144132e-05 0.0004588247135697653
000090 1f 20 13 ea d3 74 5b bf 64 c0 31 e8 b3 fc 01 3f
       -0.0016758031345478553 3.430770905132953e-05
0000a0 ce c7 76 ce cf 7f 39 3f 7e e2 f0 13 bf e3 48 3f
       0.0003890879001701126 0.0007595713613062908
0000b0 e2 0e 88 78 b5 41 4e 3f 34 c4 15 0f ca 1e 42 bf
       0.0009233604515092831 -0.0005529867759560604
0000c0 f4 5d ab e2 bd 59 58 bf 12 92 ee cb 4a 1b 31 3f
       -0.0014862398481251234 0.0002610261544140634
0000d0 ba 1d a2 a6 83 47 47 3f ec e6 24 5c ad 98 37 bf
       0.0007104294611658881 -0.00036005241794932643
0000e0 38 7f 24 36 53 45 53 bf ab 4c 08 55 28 f3 32 3f
       -0.0011761963474512093 0.0002891515223677014
0000f0 3b 27 39 b4 f2 f9 12 bf 26 2e 97 75 0e b0 36 bf
       -7.238906715048298e-05 -0.0003461871434324602
000100 dd 9d ca d9 f6 3e 40 3f c4 da bb 69 cb 06 51 3f
       0.0004957871747892046 0.0010392176108646048
000110 bc 61 53 ec 43 1d 52 3f 30 51 30 4e 4c a2 47 3f
       0.0011056102096543693 0.0007212517342645493
000120 1a 5d 09 2c 8d 28 2d bf 8c b6 a6 83 ee f6 db 3e
       -0.00022246096888765208 6.667274698930085e-06
000130 cc 4f 55 fc e1 33 f0 be 52 ae ef f2 1d 44 35 bf
       -1.5452067392132497e-05 -0.0003244946591951281
000140 20 7c 81 e0 6c 95 3d bf ba 94 77 08 e7 f8 2d 3f
       -0.00045141132478038366 0.00022867031314813773
000150 c9 2e 7f d7 5d 2e 54 bf 8e 31 f8 1a ea f0 48 3f
       -0.0012317577766109303 0.0007611411182906634
000160 02 bc fb 5b 2c f1 4f 3f b3 22 e2 4e d1 20 49 bf
       0.0009747950170700961 -0.0007668516170876355
000170 71 ae 92 df da 5c 44 3f 13 56 57 b4 77 5e 38 3f
       0.0006214207379761761 0.00037184164497480846
000180 56 1e 2b e4 c6 ac 39 bf c7 c8 ff db 11 9e 42 3f
       -0.00039176803344929034 0.0005681597904170437
000190 d2 05 dd bc 1a bb 48 bf ee 0f cd d2 18 42 29 3f
       -0.000754726462879935 0.0001927047063877691
0001a0 97 4f 05 30 59 ce 1d 3f fb 32 6c 14 1a 77 1e 3f
       0.00011370105130953236 0.00011621567419357527
0001b0 03 ca 08 af 2b 1b 46 bf ae d6 e1 cf c9 77 3f 3f
       -0.0006746257113888213 0.00048016240169288904
0001c0 f4 c9 0a ca a0 d0 39 3f 88 69 54 69 15 9f 3d 3f
       0.0003939049293350254 0.00045198700657214
0001d0 93 23 d5 b4 56 66 5b bf 35 fd 4a 80 4f f9 4a bf
       -0.0016723486654248484 -0.000823177164953315
0001e0 76 f5 a0 98 b0 0a 2b 3f 53 fb 36 8b 74 d4 49 3f
       0.00020631223407178615 0.0007882660924492891
0001f0 fd e8 94 5e b1 79 50 3f ec 0e bf a3 2c 1a 44 bf
       0.0010055763362531438 -0.0006134717909777854
000200 9a 7c 49 61 78 dc 41 3f a9 ae 38 02 7a 6a 51 bf
       0.0005450809281447755 -0.0010629836550703298
000210 20 2b 19 62 18 66 f1 be 64 46 6b 4e 85 ef 48 3f
       -1.6592797811558414e-05 0.0007609749707972566
000220 e3 35 fd f0 33 d1 5b bf 91 c5 4f 7c 6c 46 e6 3e
       -0.0016978270759467832 1.062159197748566e-05
000230 5b d4 04 c0 d7 ce 49 3f e2 68 4c c8 40 66 45 3f
       0.0007875970332295133 0.0006530586548223717
000240 7a 02 04 08 29 d5 4c 3f 2d 26 05 22 6e 89 42 bf
       0.0008799028728675017 -0.0005656993635422873
000250 ce e6 8a 4a 19 89 58 bf b6 6f 72 8c f1 07 2e 3f
       -0.0014975306495856214 0.0002291185721546831
000260 e2 f6 11 77 68 8e 44 3f e2 e0 d7 dd e6 68 35 bf
       0.0006273279269774746 -0.0003266872061824644
000270 6c 70 9a fb cb a5 52 bf d7 0c 5d 5a 78 51 4d 3f
       -0.0011381618518617976 0.0008947217618032977
000280 e9 67 92 ce dd b9 20 bf e0 fc 1d 51 39 d8 33 bf
       -0.0001276095638658708 -0.00030280494058128153
000290 90 46 05 b7 63 a0 3d 3f c6 ef 78 4e db c6 50 3f
       0.0004520648426665575 0.0010239736237869098
0002a0 2d 87 0c 90 a0 c2 50 3f b9 7a 86 e7 2c 84 45 3f
       0.0010229652400046238 0.0006566256770844304
0002b0 7f 57 17 ef 9c 18 2b bf df af 92 f1 93 cf cf 3e
       -0.00020672717759733988 3.7921489704686172e-06
0002c0 c3 01 8a 06 a5 0b f9 be 56 4f b3 2c 20 c4 35 bf
       -2.3885237541156208e-05 -0.0003321245719238771
0002d0 18 3c 86 fd 97 4c 48 bf da ef 7d 7a 28 84 2d 3f
       -0.0007415525570183571 0.00022519106027718458
0002e0 0b 91 e7 f9 41 28 53 bf fb 26 8a f9 40 d6 45 3f
       -0.0011692661570288944 0.0006664101848212473
0002f0 7c 47 ed fc 7d e1 4b 3f 5d 0b 1b 2a 40 bb 46 bf
       0.0008508553672561393 -0.0006937087348081007
000300 ad 86 86 d8 dc 85 4d 3f 4b 57 51 b5 5f ce 3d 3f
       0.000900967440476038 0.00045480572345489985
000310 0d 42 df a7 21 d3 43 bf 94 7a 1a e0 7c e2 3e 3f
       -0.00060500281665027 0.0004712633964149362
000320 90 78 57 23 77 86 47 3f ba da b8 08 92 b7 e9 3e
       0.0007179338196541419 1.2262855555095698e-05
000330 17 c2 71 5c d4 02 38 bf 78 20 44 e8 e5 78 2a bf
       -0.00036637959096366815 -0.00020196730123012477
000340 c6 ed f8 51 4c fc 33 3f 12 39 4d 24 94 5b 24 bf
       0.00030495513235325974 -0.00015531714793799077
000350 c6 fc 0e d6 82 37 42 bf 8f 4f 38 0b 35 62 43 bf
       -0.0005559338425128672 -0.0005915411952081994
000360 9d 74 9e 04 ad f5 48 3f 3d 51 08 95 f0 86 4d 3f
       0.0007617087187444975 0.0009010958402222779
000370 fc e8 50 bf 08 cd 30 bf 51 93 4a 74 74 48 3f bf
       -0.00025636161382504275 -0.0004773411094823226
000380 78 4d 5c ac b1 56 46 bf c4 21 5a 34 e3 39 4a 3f
       -0.0006817214532212476 0.000800357761094488
000390 5c 31 62 43 12 cc 4a bf 16 f6 23 8d 3f d8 52 3f
       -0.0008177842307915228 0.0011501904123741905
0003a0 d1 fd ac 2d 36 94 07 3f e8 2a 51 07 01 53 33 bf
       4.497328128260823e-05 -0.00029486441718932924
0003b0 37 c9 2e 5c 49 a8 5a 3f 59 b2 16 2d c7 32 19 bf
       0.0016270367056959287 -9.612408327681325e-05
0003c0 e2 4c f5 de 26 24 25 bf e5 05 33 3e 97 6f 42 bf
       -0.00016129469393408926 -0.0005626190653844036
0003d0 d8 68 97 57 02 85 60 bf d3 69 8f 0e 3f cc 34 3f
       -0.0020165487046429446 0.00031734981035716237
0003e0 ea 89 42 6e d0 d7 6b 3f 01 08 ff 5f eb b1 38 bf
       0.003398806658951194 -0.00037681576213455253
0003f0 49 90 b6 35 2a fa 44 bf f0 4b d2 9d 11 11 40 3f
       -0.0006401735403653931 0.0004903160112398313
000400 4e 48 73 eb ed 37 8a 3f d7 94 08 b7 27 9c 35 bf
       0.012801989314912412 -0.00032974214176058114
000410 15 4b e3 12 d4 40 c0 be a9 1c db 71 ab b7 3b 3f
       -1.9375367151600955e-06 0.00042293487227280463
000420 75 65 14 9f 9a 9e 41 bf 8d 2e 54 65 66 53 4f bf
       -0.0005377058970765085 -0.0009559869746750979
000430 51 62 fc 82 05 ca 51 bf e5 e1 12 3c 7a ba 49 bf
       -0.0010857633423652267 -0.0007851693009320286
000440 37 fa d7 02 ca 7a 36 3f a7 48 50 87 71 b1 f2 be
       0.000343012160413911 -1.7827166136249195e-05
000450 a9 f2 18 1b f9 91 11 bf 98 da 64 59 d0 43 3e 3f
       -6.702502175754778e-05 0.0004618056931521646
000460 4d d7 50 73 db 4b 37 3f 2a d0 d7 69 0d 75 3c bf
       0.0003554735915857102 -0.0004342229602507542
000470 81 1c 41 6b 09 6a 57 3f 0e 4a d0 77 9e 1d 44 bf
       0.0014290897352269574 -0.0006138824243200906
000480 76 26 dd ac 2a bc 44 bf e7 37 26 41 81 fa 43 3f
       -0.0006327827811471582 0.0006096964955746271
000490 e3 ad e4 fc 85 0e 49 bf 4b 20 b8 56 2f 2e 32 bf
       -0.0007646707761401163 -0.0002774110386956115
0004a0 80 f7 40 cf 6a 7d 20 3f 1e 5a 86 f1 64 55 38 bf
       0.00012580803707068142 -0.000371300835035811
0004b0 2a df db 7e 11 6a 60 bf a9 37 a2 59 3e 02 12 bf
       -0.002003702326756858 -6.869798235894946e-05
0004c0 37 77 e9 0e 81 e0 38 3f 7c 74 13 38 c1 a8 34 3f
       0.0003795924266450814 0.0003152343488873122
0004d0 6a 8a e4 9f 04 c9 30 3f 9e 8f d9 46 fa d4 54 3f
       0.0002561222353440253 0.0012714809521634294
0004e0 c7 02 47 6b 89 83 70 3f e1 66 69 e3 e0 ff 61 3f
       0.004031693261311537 0.0021972076749933044
0004f0 d8 40 e2 12 76 0c 41 bf 98 fa df 39 aa 6a 60 bf
       -0.0005202843219809473 -0.0020039868095403472
000500 2f 34 3d c5 a0 47 5d 3f b5 a7 f9 a3 37 1f 66 3f
       0.0017870969795297333 0.0027004324654642206
000510 60 f9 21 f9 5c f3 65 3f e6 ea 94 62 5f 0e 5a bf
       0.002679521167976137 -0.0015903407568901794
000520 f6 90 1b ea e5 40 33 3f e8 47 7e ff 29 06 83 3f
       0.00029378522059021696 0.00928910075143459
000530 da db 03 30 c4 b7 31 3f 76 1f e5 ff 7a 7f 51 3f
       0.0002703527425320075 0.0010679913680906295
000540 cf a3 5a c8 e4 48 62 bf 0e e8 a8 b5 61 1c 29 3f
       -0.0022320240412523128 0.00019158070320363134
000550 13 61 b0 a8 6e 19 4d 3f 41 2e fd 15 98 6a 5b 3f
       0.0008880415274488427 0.001673363229161576
000560 f8 0a 1c d9 e8 4c 7d bf 6c 1d d9 e8 03 ad 62 bf
       -0.007153424799755774 -0.0022797657354975322
000570 4f 00 0e 3b 1d c4 61 bf 02 2a 18 46 65 10 55 3f
       -0.0021687098418965776 0.00128564729709757
000580 72 c8 87 da 2a 01 65 3f 27 5c 5b 9d b5 03 60 bf
       0.0025640332207724154 -0.001954893795168572
000590 51 7c e1 37 91 ce 71 bf 5e f0 f3 f5 aa ab 56 3f
       -0.004347388514445675 0.0013837022341354403
0005a0 f2 a1 fd ec bc b1 51 bf 96 26 e1 7b c5 22 5a bf
       -0.0010799736955623388 -0.00159520421540763
0005b0 42 a1 8b 06 c5 cb 4f 3f f3 98 67 68 32 1c 63 3f
       0.0009703361548334748 0.0023327812698311578
0005c0 d9 24 4d f2 fa 0d 62 3f fa cc fe 09 1e 5c 5e 3f
       0.0022039319323182535 0.001853017172817327
0005d0 e3 cb a3 f1 3d 36 57 bf aa 0e a1 59 d6 82 38 bf
       -0.0014167408867791157 -0.0003740094485957616
0005e0 d2 06 71 17 2d a7 53 bf ea 52 ab 4d 6b 05 57 bf
       -0.0011995258662555364 -0.0014051006207200186
0005f0 f9 35 81 f9 f6 a5 6b 3f 79 f8 19 ee 59 7f 51 3f
       0.003375036594696065 0.0010679605697130597
000600 b1 84 66 45 0e ea 5d bf e2 9a 8b 89 3c 72 61 3f
       -0.001825822769753221 0.0021296675080181163
000610 eb 39 69 f7 02 d7 7f 3f 9e c4 93 3a 9b 91 80 3f
       0.007773410403912421 0.008090222096571783
000620 20 d3 62 f9 97 6c 43 3f 6f b0 f9 d2 07 85 53 3f
       0.0005927793561314211 0.0011913849265523765
000630 e0 85 cd a5 65 b2 39 bf 5f cc 56 bc 40 31 67 3f
       -0.00039210302002431856 0.002831102787888492
000640 d3 0c 2b 4f 8d fd 84 bf 34 f9 5d 1a b2 1e b4 3f
       -0.010249237040062564 0.07859337943771011
000650 89 10 ec c9 24 d2 95 bf 36 3d b5 8a 29 e7 85 bf
       -0.021309447120998946 -0.010694813294917265
000660 2b cf ad c9 d8 42 97 3f f9 27 d9 db e7 89 bf bf
       0.022715937909608613 -0.12319802396191894
000670 96 dc 4d 15 81 7a b5 bf 2e c1 60 5e 65 b3 a4 bf
       -0.08390051622505931 -0.04043118264269406
000680 b3 14 dc 96 34 7c 66 3f f6 fc d6 5a 88 90 9b 3f
       0.002744772637813664 0.026918535751744486
000690 fc 0d ae 5a 52 77 ac 3f 22 44 14 a9 46 ba b2 3f
       0.055597852296184386 0.07315484645757
0006a0 c0 a9 47 31 5b ef 48 3f a1 af 29 b4 2c 82 90 3f
       0.0007609553600194593 0.016121576782481054
0006b0 f6 14 27 44 14 a6 a2 3f 0f e0 7f b2 9c cb 93 3f
       0.03642333347264952 0.01933140601610722
0006c0 94 e2 44 07 77 30 87 bf 8b 07 02 f0 f4 ff a5 bf
       -0.011322908315024173 -0.04296842031273148
0006d0 b6 fc 4e aa 1f b2 b3 3f 38 89 a0 73 8b 29 42 3f
       0.07693670185016085 0.0005542689243649762
0006e0 6e e4 65 ec b7 55 6b 3f ec 75 f1 98 4b 26 41 bf
       0.0033367721800315253 -0.0005233639839265481
0006f0 e8 4d 68 95 b1 56 51 bf b3 da 5e 45 df 95 a8 3f
       -0.0010582670416895371 0.04801843377884065
000700 56 47 97 a3 43 ba a2 bf 09 35 45 5c 86 46 b0 bf
       -0.0365773331829035 -0.06357612374013767
000710 9a 20 3f 6f 75 92 a1 bf f5 b3 db 24 99 58 3b 3f
       -0.03432051642408958 0.0004172681700385644
000720 86 7b 5a 3f 19 a1 b1 3f 02 22 e5 2e cf da a8 bf
       0.0688644199058058 -0.04854438254784911
000730 29 89 14 b0 8f f0 8c 3f 81 73 48 62 90 90 a1 bf
       0.014130709229509169 -0.03430606078857235
000740 25 76 74 ac b9 5b 55 3f c5 0a 4e ca 10 0d a8 3f
       0.0013036072940119184 0.046974682517448886
000750 d3 43 74 52 ae 53 b5 3f 9f 5e 5f f1 3e 2c 92 3f
       0.08330811989823354 0.01774690960141234
000760 ac f6 8f c1 9d fe 51 3f 1b 7e 75 63 34 d3 a6 bf
       0.0010983028971617665 -0.04458011354540422
000770 c7 07 de 9a 45 d0 af bf a6 ad 1f f2 58 1c aa 3f
       -0.06213586345167204 0.05099752383815863
000780 7e 23 89 62 46 d1 93 3f 7b d4 a5 08 5d 07 b0 bf
       0.01935300804533168 -0.06261235676886827
000790 df 69 ec c0 a8 40 44 bf 98 47 35 39 0d 92 a3 bf
       -0.0006180595390533026 -0.03822366069165567
0007a0 82 b1 94 43 6b 94 af 3f 6a 08 b4 0e f5 5f 44 3f
       0.06167922210656497 0.0006217905587677767
0007b0 09 cb 3b 96 98 b5 a1 3f 3c 17 82 80 ec 7b 8d bf
       0.03458859285264821 -0.014396522208936717
0007c0 7f 94 4b 3e b5 53 b2 bf 18 d0 cb e4 17 28 b2 3f
       -0.07158978243713142 0.07092427574008331
0007d0 63 45 45 12 d5 a4 44 bf ec 0f 3c 54 6d 9a 27 3f
       -0.0006300011050745343 0.00018007835944200358
0007e0 e9 8b b3 35 4c 87 1f 3f 62 ed e6 40 4a 63 20 3f
       0.000120271707988048 0.00012502938666423673
0007f0 08 93 8e 6a d3 ad 42 bf 8f 18 f6 2e 05 c3 46 3f
       -0.0005700380616998355 0.0006946349439409682

LSTM.weight_hh_l0 f8 [200, 50]
000000 7c e4 e7 9b d0 bf a0 3e 52 a3 b8 00 6a 8f c2 be
       4.991673490654416e-07 -2.212549594000578e-06
000010 15 5f 35 99 31 15 c6 be ff 10 af 49 cb 95 b6 be
       -2.632473476243164e-06 -1.346178840165113e-06
000020 bd 79 5c 76 d1 1e be be 32 b2 79 e8 99 f0 d0 be
       -1.7953147674675754e-06 -4.038774597963983e-06
000030 f7 7d d4 37 34 86 a9 3e 7f ff 47 3a 5e a7 b1 be
       7.606814588535241e-07 -1.0522473782303703e-06
000040 5c 7e a0 11 c8 23 b5 be 72 1f 90 41 96 3a dc be
       -1.2600285743748717e-06 -6.730283552698492e-06
000050 dc f8 23 5b cf 3b d5 3e 51 1d 57 c0 6f cf d2 3e
       5.062492549832826e-06 4.484724745741049e-06
000060 e8 34 56 44 51 7c a7 be 5f 71 66 70 bf 1a cd be
       -6.999258707493979e-07 -3.4695248160699592e-06
000070 d9 d4 26 d4 40 d8 a0 be 64 27 cf fb 9c 17 cd be
       -5.020123484052968e-07 -3.468065158139629e-06
000080 da f4 0a 88 9c a1 d0 be 0c 6e ee 2c 21 1d cb be
       -3.965209658116445e-06 -3.2322153411098972e-06
000090 51 48 25 83 d3 1e a8 be 90 af 71 ba 7a cb bf be
       -7.188443816119778e-07 -1.8951202294349127e-06
0000a0 e2 38 7d 3f e1 0d b0 be 37 79 4b dd 2e 53 c2 be
       -9.56905976640418e-07 -2.1845023446674243e-06
0000b0 79 e8 06 76 3a d7 b6 be 67 62 a9 94 6d 5e 8c 3e
       -1.3614139434529617e-06 2.1136447466114994e-07
0000c0 e6 80 6d bb f6 16 c0 be 24 83 db fa 10 11 cf 3e
       -1.9180419842807914e-06 3.703435104238436e-06
0000d0 4a f3 c3 ef df 00 b8 3e 91 a8 54 84 e2 e2 ab 3e
       1.430715143745797e-06 8.310755751684999e-07
0000e0 66 e1 70 66 7d ef a5 be 34 32 21 94 ff 0a bb 3e
       -6.53729057448763e-07 1.6118861627833506e-06
0000f0 26 d0 a3 d6 f3 5c c8 be 7e aa 00 57 4f 2b a0 be
       -2.9043073271843045e-06 -4.818790966300695e-07
000100 0e 11 a4 4f 45 35 8d be 44 d6 84 1a c9 8b b7 be
       -2.176172200844585e-07 -1.4034531919509676e-06
000110 e3 2f ff a0 ba 7f b8 3e 1c c6 6f 3d 3b 00 cf be
       1.4602507043435667e-06 -3.6955957329824447e-06
000120 1b 56 1e 0c 17 2f d7 be 95 4d 5f e8 b2 f0 bd be
       -5.52748332606969e-06 -1.7845767685723415e-06
000130 59 32 b0 5d 85 96 6f 3e c0 76 96 e4 6a 22 c2 be
       5.883718375712868e-08 -2.1617941327729503e-06
000140 35 9a d0 6d 96 8d ba 3e b6 8c 3d 30 79 5e c4 be
       1.5826866992613482e-06 -2.4281783925092407e-06
000150 20 01 a4 52 df b6 a9 be 8e d7 2c 56 41 f0 bf be
       -7.663472037234026e-07 -1.9036827658253376e-06
000160 15 26 e3 d0 8f 8c 7a 3e 85 e4 39 ef 59 cb a0 be
       9.890299088317619e-08 -5.005103659992173e-07
000170 8f e4 32 90 6e e9 b3 3e 47 d5 74 ea bb 45 a6 3e
       1.1868383474180178e-06 6.637692039681642e-07
000180 41 8d b5 a1 4a 36 b0 3e 57 32 43 7c 2f 2d 9f be
       9.663150482779294e-07 -4.6456613868038843e-07
000190 94 72 29 a8 f4 ed bd 3e dc 36 6c c2 2d 69 d2 be
       1.7839380751706265e-06 -4.389489766121984e-06
0001a0 40 b7 87 1b 58 85 c5 be 90 06 57 c2 83 2e 9f 3e
       -2.565488298459257e-06 4.6464350797132415e-07
0001b0 12 e0 85 bc 90 c1 c8 be b6 e9 79 a1 9f b8 dc be
       -2.951158851679383e-06 -6.847664301918462e-06
0001c0 1a 42 01 cf b3 6a c3 3e 5a e0 db 2b a3 58 b9 be
       2.314663667881084e-06 -1.510753619480781e-06
0001d0 27 11 d4 ef 79 0c b0 be b4 d2 b3 7a ed e0 e7 be
       -9.56579185030601e-07 -1.1386215041467091e-05
0001e0 b9 12 d9 c8 d8 0f e1 3e 80 2b 7b 57 8d 82 b2 3e
       8.135748681978098e-06 1.1032801391804004e-06
0001f0 73 f9 98 ca f4 9f bf be fa be bc ed 24 0d cb be
       -1.8849866968564168e-06 -3.2247715874496597e-06
000200 ff 50 6c cf d9 90 c8 be 97 8e 3c b8 15 94 d9 be
       -2.9284743691214807e-06 -6.098379234295958e-06
000210 32 8b 15 66 34 7a ca be 9c 71 5f 6e e5 14 d9 be
       -3.1563475181723902e-06 -5.979925594670409e-06
000220 a0 79 4f 67 53 4d b7 be 07 21 a0 36 75 c7 d0 be
       -1.388910644488027e-06 -4.0004568777690104e-06
000230 fc 9a 5f 17 1e 96 c4 be ca 29 8d a1 bc b4 d2 be
       -2.4540897198723046e-06 -4.459858723058387e-06
000240 60 60 48 21 e8 2f c9 be ea 7e b5 8c b5 b6 a2 3e
       -3.002540561302571e-06 5.577119507708655e-07
000250 10 ff 65 1e 8d 6e d2 be b9 af ca 33 b3 71 dc 3e
       -4.394493294035203e-06 6.781611599986715e-06
000260 bc d4 6a 76 cf 80 b6 3e 01 f7 ed a6 d1 8a 93 3e
       1.341293193552348e-06 2.9120238925055573e-07
000270 3c de c6 8a e8 5c b2 be 1f 98 00 2b 6d 93 cd 3e
       -1.0945155209783356e-06 3.52572018160175e-06
000280 41 22 63 b6 74 ca d4 be f4 ec 6d 8a 6c 9b 47 3e
       -4.956923339523789e-06 1.0992924193969824e-08
000290 d3 34 6f ff 74 3c b1 be 7d 47 3d 65 53 ca c3 be
       -1.0273552086715646e-06 -2.3591917769705054e-06
0002a0 18 ee 0c c8 ef 6a b8 3e 40 32 e5 b8 06 fc d6 be
       1.4554096027925852e-06 -5.479926484430536e-06
0002b0 b6 a4 4c 1b 2a 1d e9 be 5a c0 ad 39 a3 84 90 be
       -1.19752520305209e-05 -2.4613910348022854e-07
0002c0 e5 f8 5d 37 4a 5e a0 be 0b 42 ec 18 96 4e c4 be
       -4.878139481105121e-07 -2.4207803969238934e-06
0002d0 6a 8d 34 e5 37 49 87 be 89 09 80 9a 92 b0 d3 be
       -1.7349428791625723e-07 -4.694399116546968e-06
0002e0 a2 e1 bf 43 79 24 bf be 46 cc e8 d9 4b 5a c5 be
       -1.8562361807622687e-06 -2.5454425689685462e-06
0002f0 88 32 c0 ab 89 81 b6 3e 0d b2 98 ec b9 c0 8b be
       1.3414625490453995e-06 -2.0677474869955274e-07
000300 c8 e2 cc 90 87 00 ae 3e 8c cb cc f0 0e 0b bb 3e
       8.941313197402952e-07 1.6119001344349502e-06
000310 9c f7 28 1e 82 71 67 3e 2e 57 b2 86 bc ce ba be
       4.3666719813376467e-08 -1.597855340295392e-06
000320 79 eb ba 74 82 21 c7 3e 5a 73 b1 d7 e3 fc c0 be
       2.7574177801892256e-06 -2.0251097204007804e-06
000330 ac 86 a2 b4 79 59 c5 3e 83 03 ef a1 9b 6d e6 3e
       2.545060316342553e-06 1.0694578177596194e-05
000340 8c 69 fc 90 b7 16 c7 be 65 9a 0e 08 60 0a b4 be
       -2.752392113236976e-06 -1.1945085420600896e-06
000350 b5 26 ec 13 5d 00 c3 3e d0 44 f3 17 fe bd e2 be
       2.2651458090370058e-06 -8.936957554802483e-06
000360 aa ff 7e 73 f3 7d ce 3e be b9 25 5f 56 fd b9 3e
       3.6349291825110344e-06 1.5491008268048939e-06
000370 62 e4 c9 67 84 f9 a2 3e 8d 03 51 5d c3 58 dd be
       5.654894291294019e-07 -6.996805912485519e-06
000380 b4 07 01 ad 8f 35 d6 be cf 8c 52 05 5c 4d e9 3e
       -5.295091526193457e-06 1.2065022170942856e-05
000390 cd 4f 3a 0d da 48 b1 be 39 bf be 35 ae 52 b6 be
       -1.0302410843642213e-06 -1.3305527408572904e-06
0003a0 56 22 a0 fd fe c0 ea 3e 6a 2a 0a 31 6d d4 b8 be
       1.2757249283638541e-05 -1.479970880210536e-06
0003b0 f2 83 29 6c 11 58 ad 3e cc 56 35 f1 82 f8 b3 3e
       8.745198204035091e-07 1.1903493416140366e-06
0003c0 44 11 cd 60 7d 26 b0 be 48 e1 c3 69 a3 77 bf be
       -9.626359116092143e-07 -1.8755994580216263e-06
0003d0 b4 9d 70 3e 4a 59 c3 be 6e 9c 60 4a c9 a8 c9 3e
       -2.3065554049133138e-06 3.058829480390464e-06
0003e0 2c 9a f9 00 af 61 8a 3e 2b a3 f4 1c a6 6c b6 3e
       1.9655806270391484e-07 1.3365989735647146e-06
0003f0 0a 9d b3 83 ca 18 c7 be 49 2a 12 77 5f 16 c8 be
       -2.753357902219129e-06 -2.8714411475828976e-06
000400 f8 52 79 be 8b 21 95 3e 05 23 2f 81 40 39 c0 3e
       3.148770119966591e-07 1.934008659419306e-06
000410 4d a1 0e 9a db be bd be 9c fa 34 0f c3 00 d0 3e
       -1.7729722474411913e-06 3.815406887596126e-06
000420 4f ea 90 6a 83 0b ce be 35 92 2c b8 09 e7 c4 be
       -3.5816400054931937e-06 -2.4917712279240756e-06
000430 72 63 a2 a7 df f0 da be 1b dc eb 5d 1a 5e b7 be
       -6.423214126049429e-06 -1.3928168908752784e-06
000440 8b eb 78 93 6b af c5 3e ec 51 ab 65 39 4f e7 3e
       2.5850814855654683e-06 1.1114821224658123e-05
000450 c2 67 a0 92 b9 c6 ca be 37 9d b9 ee 7b 29 b7 3e
       -3.1919800180914366e-06 1.38056560219388e-06
000460 12 7a 89 96 b9 1e e7 be b5 7c 8c 92 ae 52 d2 be
       -1.1024484323826837e-05 -4.368537965842419e-06
000470 fe 12 1d 01 32 13 c3 be 83 75 f1 3b 67 d1 bd 3e
       -2.2739150233062663e-06 1.7772901939252937e-06
000480 46 1f 54 4b db 99 cc 3e 3a 46 3c ca 79 fb ac 3e
       3.4095051783012465e-06 8.637406563058053e-07
000490 d2 0f ae 0d 90 91 c5 be 17 1b d1 de b0 4a 74 be
       -2.57117799890188e-06 -7.559270161312961e-08
0004a0 88 09 52 fc 00 79 e5 be 7c 80 9b ed 00 f8 c5 be
       -1.023896755670131e-05 -2.618880768121054e-06
0004b0 ba 29 d2 28 d8 b0 b2 3e c2 c7 99 31 d7 3a a6 be
       1.1140583951208399e-06 -6.6250103998425e-07
0004c0 f7 6a b7 56 c1 0f b6 3e c5 3b 75 81 73 22 bf 3e
       1.314970485269654e-06 1.8557652817390507e-06
0004d0 bf 04 f1 13 ca 76 ba be 14 f0 cb 97 d4 cf 9b be
       -1.577378568887435e-06 -4.144286760846612e-07
0004e0 a8 41 54 4f b2 65 ac 3e d4 34 29 db e4 da 97 be
       8.46304060305284e-07 -3.5546801338967024e-07
0004f0 4d cb dc e1 03 02 c0 3e 56 cf 1e 34 e0 db d4 3e
       1.90828701720475e-06 4.973146873799567e-06
000500 20 b9 bf 36 ed 51 83 3e 4d 97 2d 4a 7d c9 d1 be
       1.4394540970249216e-07 -4.240767483709219e-06
000510 65 0a 8a 70 5f 44 bc be e3 b1 60 c4 24 4b c6 3e
       -1.6848493392956993e-06 2.6575958456313795e-06
000520 9d d9 43 66 45 f8 d3 be 6c 26 31 dc 36 d8 9f be
       -4.761173475245631e-06 -4.745213255148362e-07
000530 6e 4f 66 eb f1 6c c7 3e fa ef 50 b0 71 5b a4 be
       2.7925451277585687e-06 -6.066919416912273e-07
000540 3e d8 63 cd ef 4d 82 3e b8 3e 7b 20 cb 7b b2 be
       1.3637870805550383e-07 -1.1017065179481227e-06
000550 1a 3e 31 b4 57 5e a2 be 49 4d 64 6c 47 4f a9 be
       -5.474247263356948e-07 -7.542873497211465e-07
000560 c1 de 14 e7 bd 53 b0 be e1 33 a0 6c 3b a1 c0 3e
       -9.731719752946473e-07 1.9824281922765267e-06
000570 e7 87 78 ef 4a 35 90 be 02 f3 b7 d3 b6 66 ac 3e
       -2.4152062347477683e-07 8.464225297873749e-07
000580 51 c8 4f f5 1d 87 ba be 99 65 f2 62 8a 48 c0 be
       -1.5811801479218358e-06 -1.941127969096092e-06
000590 3b 8e 5b 5f 02 8e 8b be 3d ed 53 63 55 ad b0 3e
       -2.0529868976277355e-07 9.940316776913914e-07
0005a0 aa 3c 55 43 eb dc a3 be 66 1e c7 80 1e cf ba 3e
       -5.919624814029534e-07 1.597944449748239e-06
0005b0 79 a0 06 5b 73 3b b9 be 98 b9 21 dd d2 e0 9c be
       -1.5039580426399586e-06 -4.303189743486319e-07
0005c0 df 71 d3 5b c2 26 ce be 5f 5c eb 2f 4b 88 70 be
       -3.5943273518480814e-06 -6.158797914310248e-08
0005d0 32 4a b7 24 81 bc c2 3e 9a 0c a7 49 bc 32 c0 3e
       2.2335464444436744e-06 1.930974190518498e-06
0005e0 de d1 5f ff ee a5 b8 be 72 f7 06 c2 34 03 82 be
       -1.4691458978230403e-06 -1.3420376011695244e-07
0005f0 73 6d a1 6c b1 d1 bf be 84 0a 93 f2 49 f0 ab be
       -1.8965669590563163e-06 -8.326360091615101e-07
000600 f3 89 d3 24 eb cc b4 be b0 60 d9 a7 09 9d bd 3e
       -1.2398042089015024e-06 1.7650978913122074e-06
000610 fc 8f 1f ef cb 0b a8 3e 8f d6 9f 6e e7 d1 8f 3e
       7.166290443253068e-07 2.3707700985669773e-07
000620 ea a6 e8 4c 13 79 bb be e8 92 24 82 62 59 a0 3e
       -1.6375154704519336e-06 4.872429182662803e-07
000630 86 eb 9d de d5 dd bd be 14 e3 cc 73 7f 67 b2 be
       -1.780184783999328e-06 -1.0969810794859567e-06
000640 dc 81 9b 65 c8 8c b6 3e 4d f2 84 b1 51 21 b0 3e
       1.3440807350926684e-06 9.614320273929956e-07
000650 cd 19 8e 09 5e b4 87 be 6b dd 98 5f 10 5c c0 be
       -1.766127340175144e-07 -1.9502192543337214e-06
000660 b7 f1 e0 72 2f 3c e7 be 8c 1b a6 3b 65 fb c4 3e
       -1.1079358582682297e-05 2.501250915890252e-06
000670 4a b8 94 ea 55 28 cd be fd b2 0a 3c c4 28 02 3f
       -3.4758521293620747e-06 3.4636009791233123e-05
000680 10 a2 b7 2c 19 86 9b be b0 54 60 4d 0a d4 12 3f
       -4.1013690285513305e-07 7.18241966242868e-05
000690 ed 0d 73 66 e9 84 ba be 31 9f 6f 9f 5e bb fb be
       -1.5806666853614759e-06 -2.644721277170122e-05
0006a0 f5 bb 86 f2 be 42 e3 be 3d 03 04 02 09 dd e0 3e
       -9.184229910667497e-06 8.041104650137482e-06
0006b0 56 2e 2a 00 6c 6b 68 bf 70 13 e3 51 e7 84 8a 3e
       -0.0029809102428027074 1.9758309916496201e-07
0006c0 4c 7c 4e 57 cb 31 c0 3e 0a d3 9b c7 7d 37 bd be
       1.9305359110900903e-06 -1.7414547798775322e-06
0006d0 3d 39 2f d0 b6 40 c3 be ea bb e6 56 bd 2c e8 be
       -2.2951113591635926e-06 -1.1527425809313878e-05
0006e0 e8 26 d3 75 a4 f4 e4 be 58 bc c4 0d 29 08 ca be
       -9.992425186306162e-06 -3.1032414950153885e-06
0006f0 c5 b3 d2 58 5f b8 c1 be 13 d1 2b 8c a7 33 f0 3e
       -2.112413034347011e-06 1.5451217005372596e-05
000700 3f a7 63 28 f9 d0 d5 be 28 e7 06 45 4d 15 e7 3e
       -5.201411687341856e-06 1.100693239740635e-05
000710 07 d1 0f a3 72 b6 d2 be de 0d 64 54 9a 3a e5 be
       -4.461452179239462e-06 -1.0122736636925441e-05
000720 55 a8 53 a6 ef 7f ee be 1c 40 2c 3b 56 5c d8 3e
       -1.454341436120749e-05 5.808041282376354e-06
000730 a0 5d 86 98 42 1a 97 be 98 d4 e9 3e 04 ae d8 3e
       -3.4425524877412004e-07 5.884111472389011e-06
000740 87 4c 55 ce 5b 5a c8 be 23 9b 24 5b 7a 89 d1 3e
       -2.903099459197726e-06 4.181152166083169e-06
000750 58 66 f0 c2 7e 71 88 be b8 11 b5 95 6f a9 d9 3e
       -1.8211707827966956e-07 6.118263935765379e-06
000760 3b 38 0e e1 2c fe 0d 3f 92 14 69 7c 1b ca a7 3e
       5.720686397757453e-05 7.089818091018965e-07
000770 df 14 65 c5 15 66 e4 be 37 a7 b1 f3 43 70 bc be
       -9.726891374693017e-06 -1.6950688877200468e-06
000780 31 de 3c 72 09 44 b8 3e 61 16 9c 42 bc cd f4 3e
       1.4463525496842258e-06 1.983991038569664e-05
000790 fe ee 4c 0b 45 ce d1 be d5 7b a0 79 f3 eb 24 3f
       -4.245219476225113e-06 0.00015961978061881815
0007a0 c8 5d 07 56 d3 15 05 bf 84 de f0 5f d8 55 c1 3e
       -4.0216934170163624e-05 2.0665327151966673e-06
0007b0 05 8a 99 31 3e 08 dc be 24 28 b0 6f 26 16 cb 3e
       -6.683397054981729e-06 3.228965281380969e-06
0007c0 2f c6 c1 c5 13 02 f0 be b5 bd 88 0e 18 46 ce be
       -1.5266527370666284e-05 -3.6089187356519737e-06
0007d0 48 07 93 30 53 c3 cc 3e 08 55 7b e0 94 ed da be
       3.4288153797087507e-06 -6.420148117765709e-06
0007e0 c7 97 ae e0 28 7c c3 be 4f 64 44 22 25 30 cf 3e
       -2.3227928571287992e-06 3.717907263955706e-06
0007f0 99 eb f5 5f d5 84 d0 be 61 c6 4e fb c0 0f e2 be
       -3.938408098642671e-06 -8.612412651351477e-06
