Full Forward UFA NORMALIZED LSTM.pt (torch, 201686 bytes, 10 tensors)

initialLayer.weight f8 [50, 32]
00000000: 08ae 4cd4 b935 af3f 2ba2 bcac 311c c8bf
00000010: 3f81 946a 98a0 c2bf 8a91 27bd f637 a7bf
00000020: 85d0 8c10 8cdb bbbf 15b2 306f c84e c5bf
00000030: fb46 f53e 9078 c4bf eb78 2c22 0e3c adbf
00000040: 7203 2a45 d612 b83f 8f3e 58e4 a33c bfbf
00000050: aa9d 7761 acf5 c1bf 6b39 fb12 4620 b1bf
00000060: 6067 10f0 3d4d c2bf 2323 5a79 9d3e c13f
00000070: 76fb 5989 2339 b7bf 4148 f666 711e b6bf
00000080: 0218 3bc1 f3ec a43f 871d 796d 2b4e c2bf
00000090: 34f5 5bb7 c19d 64bf af4c 6c46 51d2 c03f
000000a0: e220 7351 c727 ab3f 9725 72bd 9fd1 a5bf
000000b0: d484 b3f3 f2b5 c1bf 756f 20cd f907 a93f
000000c0: ad29 c914 fbc9 c13f 28f6 7492 c02d c33f
000000d0: 02d1 fed1 2f36 c2bf e19c 1109 154a 973f
000000e0: f5b2 4d11 df01 963f 52f6 2755 059b c33f
000000f0: 4b15 35ec 045e b1bf eb2e 1311 bb8d a43f
00000100: ddd0 64bd ae2d c23f e530 938d 862a 6dbf
00000110: 1fc0 df64 b6b9 a5bf f663 e957 1264 9f3f
00000120: 2239 01ed c394 b3bf ca39 e94f c260 b9bf
00000130: 646a 48ac 0109 c3bf 8736 b07d c12c c2bf
00000140: 5909 e6a9 fbda c3bf c783 df3c 7ba5 91bf
00000150: 0eb4 fa7f c5a8 c0bf cdad c2c4 6f2a ad3f
00000160: 7f89 7c4b 420c 8d3f ab8b 2e56 cec7 b93f
00000170: ea61 2e54 58fe c53f 1d7f 1151 c33b bbbf
00000180: 5c5b fd63 9ed3 b23f bbd5 7221 550a b7bf
00000190: 235a bdf4 6237 c13f 6c11 5a34 4e51 b63f
000001a0: ac79 6626 43c4 bebf a4d5 b8e7 06e2 a83f
000001b0: 2f3d 18d2 dd3e bcbf 5d90 d3e1 8395 ac3f
000001c0: 0c5b 6219 2550 bebf e464 af86 d9a5 c5bf
000001d0: a8f6 38fb a4ab b93f f66f d434 e9d5 afbf
000001e0: d614 2472 c380 8b3f f645 25a8 9f7a c0bf
000001f0: 7888 e7d6 6c81 a7bf 6098 9601 c7c1 c0bf
00000200: 8494 ff36 5dbb 9c3f 0568 58d4 c709 b43f
00000210: 3baf 1312 c7b9 b4bf 5812 14d0 4ac2 ca3f
00000220: 9736 4bc2 302f c23f d6c0 c4ed 40f4 a03f
00000230: 1ac6 0376 5c71 c23f 9998 5ea8 6d46 58bf
00000240: a3bb 67bb e3f8 a13f 4d1e 354b 249f bf3f
00000250: 1f99 2227 526a 82bf 9cdb 595e 8e04 c6bf
00000260: fd0d ff44 a0a4 99bf 82d9 8bd6 cf44 b3bf
00000270: 56b4 357d 0e16 9dbf 387d 93bb d4b3 b1bf
00000280: 483d 66df cae8 c23f c8cd 349e 7a05 b13f
00000290: c18c 23e1 e212 b83f c980 b32c 33cc c0bf
000002a0: 52a5 b69e 554a a53f 83ac 48af d6df b13f
000002b0: f8cd 209b 5d85 c3bf d2b7 8ff5 9d2a c03f
000002c0: 7d48 e302 e3fb c5bf 636c 6a46 92fa ae3f
000002d0: a38d 9b87 a203 c3bf 87c0 66c3 26b2 b4bf
000002e0: 6322 afe0 aae1 c1bf ee31 0104 e7c1 c43f
000002f0: ac4f de5e 448e c6bf 2560 d196 d0a5 be3f
00000300: 7ad9 f6e0 d357 c33f 1f4c 18b3 962d b03f
00000310: 67ac 4f9a 064f 8d3f 9531 28f4 02b5 c43f
00000320: f58b f45e 8d58 a53f e55a e91c 26c9 c73f
00000330: 866a 5324 17f4 c43f f64b c4fd 5df8 b0bf
00000340: a717 47d9 b26a bdbf 812e 906f a88b 9cbf
00000350: 0cdf db47 5490 8abf 6dce d770 1be1 c5bf
00000360: e278 bc0c ac28 be3f 46f4 b28e cfb4 a43f
00000370: 306c 80f7 5da7 ba3f 7e5b 0476 5ed8 c03f
00000380: 52e5 9a91 3082 b53f 2df5 bfd2 cd71 c03f
00000390: 3fc6 ecd6 d6d2 b53f bd40 a2c6 07e1 a5bf
000003a0: 123e ac8d 154b c63f d458 794a 99f3 a4bf
000003b0: ae45 1fa9 bcc6 bb3f 2bae 081f d589 bcbf
000003c0: 3837 eb36 f240 b83f 6f7f e8ac 033a b9bf
000003d0: 5574 2cbb 7c2e a23f 9226 ee9a baf4 8e3f
000003e0: e6af c836 8f76 8f3f 54a6 c87b 04eb 963f
000003f0: 5a76 c874 ffed bfbf 7791 c1d1 a59a bf3f
00000400: de91 36da bb39 bbbf 7089 6a3d f751 c3bf
00000410: 9e8a b558 d443 c23f a8c4 f7ef fe4b a13f
00000420: 5d90 fdca d2f4 c03f 421d 9c56 1eb8 bbbf
00000430: 4117 b1ec 190d c8bf 81ab 89ad 754f b8bf
00000440: c569 0a3d 13f9 aebf 6dd1 7196 66f3 c6bf
00000450: 191f 81a2 a337 adbf f7c9 5b1f 63b6 c6bf
00000460: 2cbc 4918 e340 c6bf edc8 0499 adcc b3bf
00000470: bc5b 7341 1c2d a6bf ed0a c891 708b a9bf
00000480: 4e27 c44b fc15 bf3f 72a9 85a3 5562 bf3f
00000490: ed97 57fa 83e0 ae3f 4e0a 7d40 deb5 a2bf
000004a0: 9baf 82ff e651 acbf 984b be40 102e 933f
000004b0: 2372 de89 0e08 953f d67e 7500 e593 c1bf
000004c0: 43a2 0c2f e350 c8bf 0f91 d28e bc83 c33f
000004d0: bb26 1588 c1da c8bf 1f8c 631d ea51 c3bf
000004e0: 042a cb44 b419 c4bf 3875 39f2 e96e c13f
000004f0: 4d42 7b9d 7b40 8ebf 9dec b07e 393c b13f
00000500: 2fd4 0a08 d8cd 66bf 6a25 8f59 2a1f c23f
00000510: eb7f 4778 e986 c0bf ed9b 739c 19c5 b1bf
00000520: e579 3318 c984 b9bf f889 d63f 68e6 b53f
00000530: 0553 f88b 6a71 b63f f5ec 6440 f0fa a83f
00000540: 7786 cf02 8731 c0bf 66c3 2939 4fb6 bcbf
00000550: dd50 7ea8 e390 c1bf 4cac 2f11 14a6 be3f
00000560: 0cc5 ab0a 8ce0 b3bf a0e2 5062 5664 7c3f
00000570: cb9c 249a d362 94bf 6069 4dba 1b11 bb3f
00000580: 2878 d98a 82ec 953f 18f0 a23f 2d08 a13f
00000590: 23e5 402b 2941 cdbf 262f f90d c675 c0bf
000005a0: a377 a4e9 2dc3 adbf 6b49 3934 5407 c33f
000005b0: bfad 1b92 1221 c63f d6fe d189 c76a b5bf
000005c0: fde5 f87d ea19 a1bf 70ed dd6b 5a25 c43f
000005d0: b0cf 2c14 938b b3bf 1c39 d854 cedc b9bf
000005e0: e8e0 b3ca 8f78 babf a5bb e001 b9ce a3bf
000005f0: e1e3 4ed6 7e4e b03f 38c3 140c 5c68 a73f
00000600: 172f 1164 1bdc be3f 95dc 0706 90e1 b63f
00000610: a9ae a9c3 01bc b1bf f631 b348 f759 c43f
00000620: 9e54 45f5 d68e c03f 29fb d8b9 3ba2 313f
00000630: 32e9 20bf 5b7e b03f 01e4 fd80 dfa3 c3bf
00000640: 14b7 e401 32cd b0bf 3573 d6be 0190 b93f
00000650: 53a0 adca 04ac c33f 0f31 6eca 3b7b 98bf
00000660: 1562 ec31 f81c a93f c76e e52c 2760 a9bf
00000670: a348 6bf7 a09c a0bf 5059 0127 1614 873f
00000680: e580 e9f3 4ad8 c33f 9396 89f7 6f16 afbf
00000690: 9da8 1955 7077 ce3f 9f1e 82fd c6d0 b13f
000006a0: d97f f6a6 5e56 bf3f bf4d b949 7f3f 4bbf
000006b0: 482f 6b62 4e2e c63f 467a 4c63 7d49 a43f
000006c0: eec3 4869 2bc1 9cbf bb45 189f 787d ba3f
000006d0: b9a2 f6cd 3215 a5bf 5797 3a99 59ca a1bf
000006e0: b171 5e19 220b c23f 46b2 0d0a 8459 aa3f
000006f0: 8869 ccfe e0d9 b8bf 0444 6138 965c 99bf
00000700: e4b8 691f 5a36 c73f 220f 1c3a cf71 c33f
00000710: 8fea 4346 d7e0 c03f 2e52 3f89 01d4 8b3f
00000720: 9f89 0dbe 18f2 83bf 130c 30c8 ee4e b93f
00000730: 72ab 0ac9 0ac8 a83f 13cc be74 6cd4 c13f
00000740: 0f07 d453 56c6 a4bf b0c2 3206 244f b0bf
00000750: 8f14 d365 4148 c13f a31d a129 0467 aabf
00000760: bba3 bcf5 500b b13f bfc7 9acd cd18 adbf
00000770: 32ce 7704 91eb 7b3f 23b3 824b fba0 a83f
00000780: 1b93 c1ae 9f9a ba3f d852 5ed1 bea5 b3bf
00000790: 4d76 36cf a93e c83f 5d1d 9a0d 4075 c23f
000007a0: db7e f7cc 0e41 843f a082 8cf7 5012 a73f
000007b0: ad42 9193 cab7 c2bf fc3e 474e 9012 b63f
000007c0: de9a e709 9284 b1bf f563 11f2 329b a9bf
000007d0: 9a25 15e7 2bc8 b4bf c32e 92cd 2820 babf
000007e0: f591 cd94 d52e a1bf 3592 757e 6d00 c53f
000007f0: 9730 ea11 c9e7 b8bf 1399 f239 ca26 b63f
0.06095677105471614 -0.18836041387955169 -0.14552598194223695 -0.045348845091015624 -0.10881877330831642 -0.1664667647286399 -0.15992930482985188 -0.05709880988273305
0.09403742970063236 -0.12201904606649293 -0.1403098560251526 -0.06689870799457302 -0.1429822370708349 0.13472336221118394 -0.09071561911876622 -0.08640202296945267
0.04087030156874506 -0.14301054807058852 -0.002516630508465534 0.13141838015198945 0.053037861530869326 -0.04261492908069469 -0.138365143770932 0.04888897541988416
0.138976464413941 0.1498337473985185 -0.14227864984207633 0.022743538549914958 0.021491513663408807 0.15316836030972297 -0.06784086958676487 0.04014381965097676
0.14201912162537314 -0.0035603168476879715 -0.04243249875423793 0.030655180564597338 -0.07648872886895622 -0.09913267565682485 -0.14871235763787916 -0.1419908393585738
-0.15512033267811878 -0.017232823934935994 -0.1301504969500517 0.05696439053403033 0.01418353836885866 0.10070504764602954 0.17182449446114784 -0.10638066033561384
0.07354154530672247 -0.09000141207328387 0.13450276327303454 0.08717812326546487 -0.12018222510821513 0.04859944895398918 -0.11033426646485077 0.05582821017904458
-0.11841041440707673 -0.16912383152411004 0.10027533658373022 -0.06217888612647464 0.013429190560155051 -0.12874217710718455 -0.04590931056351705 -0.130913615966338
0.028058487397988788 0.07827423986637434 -0.08095974150972733 0.20905432853773465 0.14206513869287526 0.03311350729416211 0.14408450853766014 -0.0014816351772224733
0.035102001787769475 0.12352206073875856 -0.008991853541669812 -0.1720140419672277 -0.02504206105346717 -0.07526873577066875 -0.028404451744269053 -0.06915025310035083
0.14772926242992868 0.0664898525472416 0.09403818127207143 -0.1312316864268779 0.04158275186939399 0.06982175616637858 -0.1525074965917239 0.12630056848814647
-0.17174947396285126 0.060505457969349384 -0.14854842778650576 -0.08084337492505443 -0.13969932528404447 0.16216743178883014 -0.1762166465019822 0.1197176330764483
0.15111778721411523 0.06319562790331233 0.014310885986523482 0.16177403375367008 0.041691224900453884 0.18582607661911435 0.16369904779169903 -0.06628978200414778
-0.11490934185630285 -0.027876502808835916 -0.012970598643263574 -0.17093222627555651 0.11780810652678356 0.0404419767087139 0.10411631863137027 0.13160305750417572
0.08401778750239444 0.1284730223705223 0.08524840113820974 -0.042732470509805755 0.1741663877260043 -0.0409210112963351 0.10850123528441344 -0.11147815711654434
0.09474099961081783 -0.09854147883788554 0.035510919426294286 0.015115220883461764 0.015362852916119562 0.022380895667231407 -0.1247253093829043 0.12345348711966674
-0.10634969785184675 -0.150938897121772 0.14269499141217507 0.03378292731566407 0.13247141753811578 -0.10827817549226373 -0.18789981896605393 -0.09496245848428765
-0.060494042588476606 -0.17930300088813614 -0.05706511839576773 -0.17744101554087852 -0.1738551968187222 -0.07734189019973643 -0.04331291483838792 -0.049891965671141715
0.12142922258149477 0.12259421579589061 0.06030666762289614 -0.03654379403316864 -0.05531236523651658 0.01873040576135629 0.02053854671940959 -0.1373258831254051
-0.18996848866778934 0.15245778058773182 -0.19417590279254235 -0.15093733248713279 -0.15703442915976507 0.13619732215276215 -0.014771428817227728 0.06732520430607498
-0.0027837008822993096 0.14157609341627203 -0.12911718724262697 -0.06941375798815815 -0.09968239632460259 0.08554698523088422 0.08766809384571779 0.0487895086866618
-0.12651145589102317 -0.11215682168564242 -0.13723417021959153 0.11972165507874982 -0.07764506588479864 0.0069316267372917795 -0.019908243449347645 0.10572980211637661
0.021410026287746714 0.033265508669018284 -0.22855105030047537 -0.12859416658681616 -0.058129725237662265 0.14866116094578827 0.17288429388223212 -0.08366057505372324
-0.03340084827182108 0.15738992945612607 -0.07634848825983798 -0.10102548190500155 -0.10340212534709148 -0.038686543921691276 0.06369774562962462 0.045718075251335255
0.12054606621785201 0.08937931201204415 -0.06927500750469541 0.15899554300121083 0.12935912109484077 0.0002690692725514804 0.0644280759451348 -0.15343850897241398
-0.06563103243089713 0.09985361966250823 0.15368709465406258 -0.023907598715184494 0.04904914483467252 -0.049561714392181204 -0.03244498272182852 0.01126878077063212
0.15503823194285996 -0.060718058554624886 0.2380199828651869 0.06959193886916147 0.12241164757006064 -0.0008315440677030757 0.17328815274810894 0.03962318265097457
-0.02808063345054628 0.1034770382323335 -0.04117735637857351 -0.034746932940193424 0.14096475828854474 0.05146420119021804 -0.09707456799188752 -0.024767253104361245
0.1813461926826171 0.1519106897104559 0.13186160021708246 0.013587963105160385 -0.009739106464341783 0.09886066806215892 0.048401200333805586 0.13929515552953883
-0.04057569287580353 -0.06370759154629968 0.13501756164456366 -0.051567201692303465 0.06657892226634392 -0.056829863880366364 0.006816450571466558 0.048103192298503815
0.10392187134273138 -0.07674782382521117 0.18941233270463656 0.144203192369086 0.009889712934579567 0.04506161710583467 -0.14623386578980072 0.08622075949756075
-0.06842911474050647 -0.05001219944887928 -0.081179374615337 -0.10205321329902532 -0.03356044236605619 0.16407555269974386 -0.09728676497815268 0.08652938761460786

initialLayer.bias f8 [50]
00000000: 8b7b d6b2 d913 bfbf d7b7 7326 f2d0 c13f
00000010: d296 b8a2 bbeb 7fbf 9be2 8bea 1d01 9ebf
00000020: 08c6 0eff eafb c23f d94a b19b 4132 a9bf
00000030: 6268 90be 77d5 b9bf 6ff5 787f 5e04 b6bf
00000040: 4007 dfd4 bce3 cbbf c365 0315 0eda c4bf
00000050: 6d1c ffa3 f5c3 c0bf 8fe4 3a3c 0633 a33f
00000060: a593 e0be 2281 c13f 584b c9b7 57d4 bfbf
00000070: 1925 446c d6b0 c5bf b195 2277 5328 c23f
00000080: b590 64ee 6b48 a73f 53e6 305e 3809 c2bf
00000090: 03f1 7cc1 3d4e 9bbf d7a7 d0bf f173 c93f
000000a0: c59f 2976 b1e3 ac3f 18a7 fbdc baf5 bd3f
000000b0: 393e dd46 1291 ad3f 72a7 bd14 2109 b9bf
000000c0: 6aa6 cd4d 201f bebf c933 a3c0 7be2 ae3f
000000d0: 28f2 1e14 cb10 c03f 67a9 425a c79d c4bf
000000e0: 38c4 e19d 454f b83f 0b9a fab8 ff96 993f
000000f0: f6b4 d1b4 b26f aabf 9b79 baf5 7756 a1bf
00000100: c54a 0645 b43d b3bf 6948 7a9c 4b7a 82bf
00000110: b681 8c9a 42a7 c3bf 3ae1 e5aa 3377 c83f
00000120: 4f23 32cf 9531 a13f ccc4 8c2d 4933 b1bf
00000130: 4f06 42a4 ad9c c13f a878 4d96 1e91 b53f
00000140: 3e2b 23f1 94e4 8f3f c8f9 2959 751f a9bf
00000150: e464 f37e ee2e 77bf 9a06 ac36 5c4d cbbf
00000160: 6de9 3abf 79e8 763f 45b0 10ba 20e2 8dbf
00000170: ce58 cfc1 8cc5 c73f 4f5a fbe4 e447 ac3f
00000180: f588 58e1 59b8 be3f 56cb e68b b9b2 c93f
-0.12139664283902911 0.13918902280369025 -0.007793171836544226 -0.029301135483339107 0.1483129258536311 -0.04921155000251582 -0.10091350939220115 -0.08600416767236195
-0.2178875007066896 -0.16290451074637077 -0.13098021037714905 0.037498659946728734 0.13675340957811702 -0.12433384167642936 -0.16945915495333777 0.14185565297263517
0.045474408007323865 -0.1409063777844489 -0.026665654120038528 0.19885084024400498 0.0564246613255928 0.11703079123585913 0.05774743189851645 -0.09779555088394234
-0.11766244792456751 0.060321681275673784 0.12551249010529486 -0.16106502444501844 0.09495959381617147 0.024990077653138026 -0.051633438656475336 -0.033862828012604505
-0.07516028103990909 -0.009022322380847396 -0.15354187532740377 0.19113775105120984 0.03358142999883872 -0.06718880998666349 0.13759394188314153 0.08424559754846206
0.015572703942230978 -0.049068133482240095 -0.005659991860022393 -0.21329834622888627 0.005592799734296922 -0.01459146087480446 0.18571624244095236 0.055236008598218526
0.12000047446830193 0.20076674777154818

LSTM.weight_ih_l0 f8 [200, 50]
00000000: a2f5 26cf 62f5 993f 5f15 c1ef 2d5a b7bf
00000010: e0c5 b718 4539 aabf 2e11 def1 d479 ac3f
00000020: d28e ca64 aeca b0bf 2627 d0bc 42ad bdbf
00000030: 714d 6fb5 a022 89bf eb64 8701 ae03 b6bf
00000040: b6f6 6604 2f6f b73f 1ffe edb9 5e0d 9cbf
00000050: 87e1 e6e8 0d52 bebf 45af 302e f41a bdbf
00000060: 9e35 8ea2 d807 86bf 8757 61c9 0991 adbf
00000070: 925a 3ca7 de4b babf 9980 e1bc be5e bc3f
00000080: 1595 a001 38e4 823f 6fe5 74db 4abd a63f
00000090: 7088 aea3 b989 aa3f 4b74 2ac3 91ef a13f
000000a0: 9b6c dab2 71e3 a93f c4be 3c3b f9b3 bf3f
000000b0: 94c3 e6c9 996d b33f 8fa5 86cc fe79 9abf
000000c0: 7d58 c8f1 51e6 7bbf 9461 0291 56c0 523f
000000d0: e6d7 e9b6 1c33 a13f 5f02 d6e9 f582 ae3f
000000e0: da5a a525 8a96 c23f b6c6 3db1 8ea6 a5bf
000000f0: 70d3 7601 229a b7bf cd99 e470 353a bbbf
00000100: 0d0e 0877 073a c3bf 9b87 47aa ece6 b6bf
00000110: bcef b0d1 dacf b93f 135c 30fe 542f be3f
00000120: c929 fab2 6f93 b93f dcb8 ba9f 7532 a8bf
00000130: d136 6aec 4d97 b5bf a01a 76fb 5b9b b93f
00000140: fa3b 4d50 910b a5bf 2491 3221 f467 b8bf
00000150: 7336 19f2 a08a b2bf 5326 086f ea2c a13f
00000160: b25a bcec e17b 94bf 7468 431e 1861 b6bf
00000170: 536d 920d 80c8 b4bf 5d0d d707 be13 b6bf
00000180: a5c6 562a 31ed ac3f b8e9 0291 c704 c33f
00000190: c836 c628 6cd5 bb3f b4cf 2e0e 7a85 a9bf
000001a0: b734 c117 00bf b6bf 5d1b 56b3 76ad b63f
000001b0: 12ea 6e01 2a95 78bf 7f19 b9ef 2518 b23f
000001c0: 4feb cee6 bdd7 983f 461a 810f 22ec 903f
000001d0: 6428 6383 e2f6 a1bf 728c 712d decd b3bf
000001e0: eddc 2bf0 9055 b6bf 6b3d 2e62 c699 37bf
000001f0: 6ebf e2fe ed7e b7bf 80d4 c4f9 2d48 bdbf
00000200: 1fcd f3a4 379d b5bf 7f0d 390c 323f afbf
00000210: fbe7 01db f57f b33f 939c df82 a348 b5bf
00000220: 53e4 900b de83 b8bf 066a 8aa2 0ad5 bc3f
00000230: 4d09 5081 e973 883f 81be 333b cf3f bc3f
00000240: c539 e1fc 15c6 a3bf 0071 4f54 e222 b13f
00000250: c686 76a7 89fa b4bf d309 b54a 7280 b5bf
00000260: 2db1 774d ae5c b8bf 860e ac43 83c1 813f
00000270: fc7e 7b02 c463 a83f c3c3 8369 bd68 a6bf
00000280: 6336 d42b 431c b6bf a3cc acb5 3b5a be3f
00000290: 19d1 4bbb e0b5 a0bf fd7e b459 2d20 c1bf
000002a0: 4c31 c054 a11c ab3f 6233 f4a7 736d b73f
000002b0: 4c0f 4a68 843a 853f 3a77 80a2 5d5d b83f
000002c0: 22d8 9456 32bf 92bf 4225 fcaa ea5b b7bf
000002d0: 02c9 9e28 9a03 a43f ada1 27b4 ed6d b43f
000002e0: a06b 2e9b 6b68 be3f cd18 9c5c 3706 74bf
000002f0: 77bf 6d43 bcbe bb3f 499d 4132 20df ae3f
00000300: 85bb da8e 0d34 b13f 11d7 642f 27bf 9bbf
00000310: 4736 733e b540 a43f 7ed6 e06f a611 b1bf
00000320: 4ec6 0b7c cf46 c0bf 46e8 930f 2346 a03f
00000330: bd98 310e 4dca 97bf d06b ec74 f539 ad3f
00000340: 60e1 18c5 9950 8fbf 4d42 d96c 12dc c1bf
00000350: b7c8 618d 7189 b23f 362e b431 3a62 bbbf
00000360: f06c 0488 1c19 b9bf e401 d19f 7b84 bbbf
00000370: b961 ecac a6eb a9bf 8be8 1b1b 265f bd3f
00000380: 604c b52e 3ab2 b5bf 0884 b088 1aff b8bf
00000390: 3912 c180 6a1c a63f cf25 aedc d45e b53f
000003a0: 8365 fc37 57da ab3f 8bc9 31b2 501d 3dbf
000003b0: 203e e2ee 9b28 b5bf 5aee 3e0e 41d0 ba3f
000003c0: 92fd 53fb b2f9 b0bf 58df 52cf 6a1c bdbf
000003d0: 6666 501d c659 9ebf 045d 06a2 3cc6 b63f
000003e0: 22a4 1ecd 7f5f a13f 9f5f 4115 93fb b2bf
000003f0: 2d8b a170 819e b7bf 7aea b1a1 e8f0 b73f
00000400: f0a1 2073 51e5 b3bf f516 962e f284 afbf
00000410: 88a1 280c f962 bb3f 66f5 fdbc 6de9 a03f
00000420: 3ec9 70f8 4515 b4bf 0ecc f568 0a00 b2bf
00000430: 2898 d44f 772c 74bf 0356 5127 fffd bbbf
00000440: ae08 4241 1083 803f 7d09 b58b 5762 af3f
00000450: a40c fb00 1d58 a1bf beab c5f4 885f b0bf
00000460: f0a4 d4b6 7f6d b7bf 9463 4f93 ad9a b43f
00000470: a395 2527 d8cc a3bf b9bf fb53 210f b5bf
00000480: 2d62 5220 5462 afbf 60ca 8da1 2aef 713f
00000490: 464f b11b cdc3 c13f 7b70 b31e 86db ac3f
000004a0: 658b 87b5 2e5d bf3f 162c e84a 05d6 c13f
000004b0: 24a5 51c8 9ffd bfbf cab5 1b63 8550 a33f
000004c0: 859e 66d4 9dcf a9bf aca2 9f73 4245 b93f
000004d0: ee4b 4f80 0bef b9bf dd4a d2de 49ef 9b3f
000004e0: b914 2544 8cd8 a23f 0148 a4fb aaf3 abbf
000004f0: c8d2 3589 86be 913f 3796 3183 f521 b1bf
00000500: a746 c2cc 45bf b0bf b851 e66c f805 b83f
00000510: 951a 4aa8 d3cc a73f daab a33a 66e7 983f
00000520: bfbc 5c80 21f3 963f 3e4d 7693 8ba2 a03f
00000530: 0ab9 69e6 7674 ba3f 4619 dc4d 0d88 be3f
00000540: a6b1 3d10 bb71 833f 037c 9a6a 8bc4 abbf
00000550: 5008 b515 af51 ac3f ce27 5c9e 8012 96bf
00000560: bd7f 53b9 ae9c b13f ef76 d627 be93 91bf
00000570: 8cee f44c cb73 823f 899f fdb3 00f1 a13f
00000580: cc5e d3a4 9a28 b6bf 4cea d6dc b703 babf
00000590: fd70 890c b459 bc3f f86c f8fd 0e5d a93f
000005a0: 8a2d 2bab 7d8f a13f 9749 ad4a 19e2 b43f
000005b0: 0fa9 13f3 2890 a0bf 3278 8a24 ea2e 7b3f
000005c0: 4064 a8d5 600e bcbf 48fc 3d26 b965 bd3f
000005d0: b9e2 60d7 88a9 b3bf 4f41 58a4 7a9c c0bf
000005e0: 39d5 6620 0ee8 933f 38e0 2fdf 8fec c1bf
000005f0: ebc1 83b9 863d c23f d996 c684 c278 aa3f
00000600: 32d9 36b6 21f4 9cbf cd39 e50a 3914 acbf
00000610: f925 984a 0b4d b5bf 51dd 7b33 9299 b0bf
00000620: c50e 4c1f 5360 b13f 1605 bd26 a0b5 abbf
00000630: 06dd db74 1a1b b83f 8982 f398 cc5a bc3f
00000640: c1c7 5063 35c8 aa3f d333 5e9b 0eae 71bf
00000650: bcee 3a24 6ed2 93bf 206d 788e 9726 adbf
00000660: 51d2 17c4 c136 a63f bda9 8862 fbcb 8c3f
00000670: c03f 3971 20f0 adbf 320c 0352 251e 8dbf
00000680: f0ca 0dab 17f4 ad3f 52e6 488a 97ce b3bf
00000690: cb2f eabd 8c01 a2bf 795c 9653 f2ec a13f
000006a0: 8117 62c9 0c18 943f 4880 1898 b87e b9bf
000006b0: ce36 8e19 7ac1 9bbf 8d2c a5d4 9596 90bf
000006c0: 32ca 2458 13cd bebf 9f7f a27d 952b b0bf
000006d0: b572 da2e e784 8ebf cc56 15bb ff82 ac3f
000006e0: 0bf2 f91f ff41 63bf 09d1 4654 c5c7 b3bf
000006f0: 948a 89e7 7e70 8f3f 85a4 3e13 d657 b2bf
00000700: a841 242e 70f2 9cbf 0bf5 57e3 34c8 a83f
00000710: f70b b467 0e62 8a3f 4107 2f21 7d7c 9bbf
00000720: d2aa 25cd 558f ac3f 9573 69b4 dbe2 afbf
00000730: e521 bfe2 33e4 83bf 77e1 8fb4 ed54 ae3f
00000740: 00a3 0533 5dd4 c3bf 0fb9 19ff 7b55 bbbf
00000750: b43a e350 c391 b8bf 7ac4 eae0 929f a9bf
00000760: 8e76 4553 7905 b8bf 2438 2451 2eb4 ae3f
00000770: c106 89b5 c969 96bf 69e7 f600 a20d a73f
00000780: c970 278e 3086 b03f e822 db1a 6772 b5bf
00000790: 48a8 e5ed 6ec0 bb3f a47e ecc3 52f5 b53f
000007a0: 4c48 9c4e 3631 b63f 9116 d6f8 7010 b63f
000007b0: 5c36 16a8 2879 ac3f 6c65 a598 128b b33f
000007c0: 86dd 7c33 cf89 b73f cac0 f1cb 9e27 973f
000007d0: a076 466f 6da3 b93f 01e7 a8f6 04ee a43f
000007e0: 423d 07ab 6028 abbf 8e2e c780 8fd0 903f
000007f0: 88f4 8ed0 a507 77bf 043b 74a7 5263 b2bf
0.025350135701719297 -0.09121977904677213 -0.05121818472606399 0.05561700298770443 -0.06559267006610561 -0.11592499837584266 -0.012273078476858075 -0.08599364793134938
0.09154027802920947 -0.02739475259613588 -0.11843954979020142 -0.11369253280343823 -0.010757152996826499 -0.0577471788716784 -0.10272018034843658 0.11082069503163651
0.009224355268154608 0.04441293648637667 0.05183200953548883 0.03503089435000869 0.05056338604227869 0.12383992859099197 0.07589112452730112 -0.025856000169061807
-0.006811447234687515 0.0011444898009696823 0.03359307988004882 0.059592900080137616 0.14521910513095443 -0.042286357055571086 -0.09219563041444956 -0.10635694509674139
-0.1502084094246218 -0.0894611278268073 0.10082786197102583 0.11790972905906498 0.09990594977913426 -0.047259975193229414 -0.08433997175071829 0.10002684487526858
-0.0411038790249378 -0.09533620653616431 -0.07242780600173564 0.0335458050286205 -0.02000382430477527 -0.08741904009676366 -0.08118439036700424 -0.08623874370009817
0.0564971317466079 0.14858336048730592 0.10872531886544856 -0.04984647200708939 -0.08885193424176206 0.08858434561089497 -0.006001628956193732 0.07068097212422762
0.024260489666384995 0.016525776096637544 -0.035086706675046014 -0.07736004456960346 -0.08724313605840779 -0.0003601178488503362 -0.09178054306789615 -0.11438262317536108
-0.08443019654423665 -0.06102901839451657 0.07617127034055209 -0.08313962884095565 -0.09576213629124312 0.11262575596121147 0.011939834841545727 0.11034865565647502
-0.038620650405039515 0.06693853910786984 -0.0819479020924759 -0.08399118732362547 -0.0951641978387598 0.008669877531708236 0.047636151602771876 -0.04376785195370971
-0.08636874980967373 0.11856434998917335 -0.03263761793451376 -0.13379446869020475 0.05295280608706551 0.09151385164677842 0.010365518982559906 0.09517464845017978
-0.018307482275496174 -0.0912462871020994 0.03908998247006147 0.0798023762541848 0.11878082789045985 -0.004888740784514134 0.10837914129456104 0.06029606450538922
0.06720051515251953 -0.027096378581709383 0.03955618274049449 -0.0666755698337855 -0.12716096455510456 0.03178510251196136 -0.023232654563252398 0.057082815668955456
-0.0152904523157395 -0.13952856364132274 0.07240972234447694 -0.10696757997009673 -0.09803942032560875 -0.10749027873772082 -0.05062600003128943 0.11473310624924886
-0.08475078239762146 -0.09764257275720933 0.0431855470820079 0.08347826373769539 0.05440018232747958 -0.0004442522060294155 -0.08265089590189989 0.10474020574377488
-0.066310106620213 -0.11371486245741147 -0.029639335192860015 0.08896235423741322 0.03393172625448694 -0.07415122288636987 -0.09226235389500621 0.09351972530013511
-0.07771786747674247 -0.06156117266350051 0.10697895571559546 0.03303091938048901 -0.07844960513537999 -0.07031312048438584 -0.004925218641153285 -0.10934443197159997
0.008062483779444154 0.06129716473016609 -0.03387537610026328 -0.06395774818308461 -0.09151457036627497 0.08048519941747961 -0.038672213343299754 -0.08226211834312282
-0.06129706282189704 0.004378477599731839 0.13878787853411206 0.05636233448760294 0.12251560146209568 0.1393438926464518 -0.12496374741171629 0.037723701809095525
-0.05041211335929766 0.09871306727257928 -0.10130378611147225 0.027280000901167212 0.036808379476988624 -0.05459341356085191 0.017328359722756287 -0.0669244237229457
-0.06541858910557129 0.09384110125240042 0.046484579365871394 0.024320218400060024 0.022411845645532887 0.032490121603724095 0.10333960652653587 0.11926348830102027
0.009494267876754513 -0.054233891261212384 0.05531069889049489 -0.02155495611717822 0.06879703545155187 -0.017165156537536082 0.009009922300371252 0.03504183003570833
-0.08655706905426114 -0.10161923543538726 0.11074376398159198 0.04953810548996701 0.034297873634922274 0.08157499383131604 -0.03234985320325922 0.006636538143224556
-0.1095943948388518 0.11483342345853587 -0.07680564172995731 -0.12977536224981143 0.019439907767908358 -0.1400317992954585 0.14250263269742844 0.05170257445142363
-0.02827503847739727 -0.054841787891394135 -0.08320684977675076 -0.06484330899171666 0.06787604822244038 -0.054120068291476794 0.0941635642337709 0.11076048597488798
0.05230871999118803 -0.004316384371020515 -0.019357415162388078 -0.05693505872860727 0.04338651198114419 0.014060939735902939 -0.058472646542781614 -0.014217654767327035
0.058502902632332154 -0.07737109304516679 -0.03516807382865713 0.0350108840022409 0.019622993270352666 -0.09958986008905513 -0.027105243501458536 -0.016199437240441972
-0.12031670476862003 -0.06316503827338103 -0.014901929967260011 0.05568694266064042 -0.002350805559954821 -0.07726701076063959 0.015351287308651686 -0.07165277452317483
-0.02826857835413113 0.04840245509329052 0.012882339992307463 -0.026842074537632547 0.05578106049764177 -0.06227766587537712 -0.009712605817086615 0.05924170331121819
-0.154918336785407 -0.10677313783682883 -0.09597416615290905 -0.050045576053329335 -0.09383352549545007 0.05996842136856653 -0.021887923913033406 0.04502588521741197
0.0645475718551466 -0.08377689748443695 0.10840504940065998 0.08577458651825026 0.0866884176178086 0.08618837428192651 0.05561186839905183 0.07634083010397824
0.09194655425095818 0.022612076947951455 0.10014995543175553 0.04087844382270412 -0.0530424317145113 0.016420595393170027 -0.00562252780303852 -0.07182804668648762

LSTM.weight_hh_l0 f8 [200, 50]
00000000: a714 3fc4 7cdd 903f f89c ccde b527 aabf
00000010: 4d89 319f c861 93bf 3ae7 3091 46ed 96bf
00000020: e245 bb52 c547 b2bf f31d 6e3d 5927 82bf
00000030: f201 d465 4a6e 433f 4e10 aad5 163e ac3f
00000040: dfc2 f5e9 848f a6bf 7f73 1772 64f6 a53f
00000050: f5d6 035d db59 a2bf 5e81 1d3e ed17 b33f
00000060: 4468 d195 2744 a1bf aaf6 4f10 c8fb a9bf
00000070: cb42 0ab4 ce46 ac3f 276c 7569 86ee 743f
00000080: 8e91 5965 ce87 adbf 0077 612e 3253 b0bf
00000090: 4767 eafb 0e16 983f a2af e39a f8fa 6f3f
000000a0: 3887 7f09 c6f4 e53e 1558 a1b0 584b 9bbf
000000b0: f4ad 33f3 4082 5bbf 8f86 e7e3 5c88 a53f
000000c0: 0713 817a e700 b43f 69cc bf44 059b febe
000000d0: 2b9d d5bd 57f0 b43f 0a51 3584 bd31 65bf
000000e0: 14cb c3b3 8a7c b23f 0d95 3c44 a20e a93f
000000f0: 9456 f0fd 8cd0 a63f c288 95ce 1ea9 1fbf
00000100: 9735 f225 ca24 b7bf 7b7c e019 c637 babf
00000110: 6870 7f74 47fc 84bf e042 80f7 2f9c 373f
00000120: 83f6 f821 0ffd 93bf 50c8 b06b 5e9e a2bf
00000130: 8cfd db87 f3fc 1b3f bfab f34c 613e 873f
00000140: 6464 94d1 6c45 50bf 3959 4c5e 053b 98bf
00000150: b71b f83a 14bd 643f 2f33 a6b7 162a ab3f
00000160: 9fe5 a4eb 368a 92bf f1c2 ec23 d05c adbf
00000170: 8310 5bc1 e11c 633f 2675 894a 631e 583f
00000180: 7119 63b0 1067 5c3f d8cb 1880 f57f b83f
00000190: f428 cd10 69fe 5c3f 0b8a 8cc2 2c67 b33f
000001a0: 2f3b 4d5b 0d99 81bf 5438 4e37 be2b 82bf
000001b0: d262 7211 3447 b1bf 2af6 96f1 3229 4b3f
000001c0: 2304 0171 840d 8ebf 88a1 3b56 0c59 afbf
000001d0: b5e8 f633 0a13 4b3f 3c04 6253 0366 96bf
000001e0: 3fec 9f98 d825 6abf 36b3 6aea 3b3b a6bf
000001f0: e054 44f6 7e75 733f 7d59 f325 9ffd 96bf
00000200: 795f 504b f201 95bf 337d b8ff b674 79bf
00000210: f988 312d fa47 a3bf 6a97 efbc db7c a73f
00000220: 1a1c fa17 d685 7c3f 793f 4a3c 1688 a93f
00000230: 4314 a937 2df0 a2bf 39b8 7aa0 7564 813f
00000240: a37c 7702 10a1 adbf 4be1 b7b8 e062 833f
00000250: ef67 a56f 1aa9 56bf 061e 96b0 ce6a a23f
00000260: 030f 43d3 a9db 803f fdf9 b89f bc8d a0bf
00000270: fda1 f53e e314 91bf 6a2e a470 10de 003f
00000280: fdd0 e259 ba31 a13f 8f96 1dfb 21e5 8dbf
00000290: eab9 bca5 147d b13f 83eb acdb 9784 943f
000002a0: 6c90 3ebd da82 a93f ea55 b83a 0f7d 56bf
000002b0: d191 fff7 9b0c 953f 9649 86c7 1b7a 9ebf
000002c0: 1f89 2a04 ed6e 893f 6d18 a2c7 eab9 a83f
000002d0: 0f0e 33c9 3701 783f 0e61 9c92 7331 8fbf
000002e0: 1e4f 8257 36b5 85bf 8fae b7c3 0443 8cbf
000002f0: 243d 628f 4197 91bf b90a 0696 cb23 633f
00000300: f59d 04ce 4d35 51bf eaac f2ce cfe6 17bf
00000310: 3820 2b53 c847 533f 3bd5 b482 c840 1dbf
00000320: 8f86 9079 ea9a 47bf ba70 02d2 36f4 b4bf
00000330: 1816 8852 42eb b53f 48db f9c7 159a b5bf
00000340: 62dd 3c77 069b a33f 88d2 0333 341c 9d3f
00000350: 540f 4b68 7968 a7bf 7d51 164e b4dd a13f
00000360: 69ad 8cf1 4481 9d3f 1660 7409 f079 9f3f
00000370: 26d4 84b9 d089 abbf 1b02 08f7 5e91 b23f
00000380: 5edd 50ac 9c86 b53f bd0b 13a8 bc84 95bf
00000390: 138b 4085 c7cf 913f c9c9 5ce8 ca44 b43f
000003a0: 7f29 4a77 086c a2bf caaf 6c42 6df5 57bf
000003b0: c7a9 7f10 ae68 5e3f 13de df54 ca3c bb3f
000003c0: 7581 73a3 235f 983f 8d7c d41a 2787 26bf
000003d0: 9bc4 9c6e 71f8 563f 6e7d 3d78 df87 923f
000003e0: 6cdf 736b 7bf9 8d3f 002c f41c 52a7 b1bf
000003f0: c7d2 0242 7060 9bbf 1d30 50bb a5ae b53f
00000400: 9605 7e16 d105 ac3f 67f0 f90d 05ae b7bf
00000410: 3dcc feee 41aa b23f 3c0d 6c11 2ee3 713f
00000420: 1d59 042c 6e73 8fbf c0d6 316d 7f31 92bf
00000430: d238 a716 b700 a93f 33ac 77de 9c35 6a3f
00000440: 84a0 8a95 ca2d b4bf db60 27ed 4f5f 733f
00000450: 76ef f57f bc5e ad3f 8277 624d 1551 6d3f
00000460: 1792 cc71 1b47 71bf c14b b3b4 a0e6 b23f
00000470: 8341 8a63 0896 4bbf da12 b45b 2d6e a23f
00000480: 8ed2 2665 2830 b1bf c08e bdb6 eea2 893f
00000490: a0fb a082 cb36 8b3f 511d 0b77 e273 613f
000004a0: 7eae d4c0 a39d a03f b4bf 0c45 1566 b23f
000004b0: f876 e532 a0c9 5cbf 28d8 c04f add4 a33f
000004c0: 4031 02d5 661c a23f dbac e360 4af1 a2bf
000004d0: e223 be3e 45e0 a2bf c2a6 59c3 097b 7dbf
000004e0: db90 1b4b 3c42 b13f a4eb 41bc 19e3 7b3f
000004f0: eb91 e6a6 d65f 983f 7712 d913 f62a b03f
00000500: c8be 6638 0f7b a43f b98a 4337 ffed 87bf
00000510: 5b5b b137 9bc5 aabf 6a49 c02b e2ae ac3f
00000520: fa9c 7157 94c8 7fbf 4092 7dd5 0049 90bf
00000530: b5d5 8596 3169 51bf 808a 48c0 8fb4 9cbf
00000540: 4cdd a115 2618 933f 6a27 221d 969f a1bf
00000550: 844b 143e 01e7 9fbf a2d1 bf9a c1bd a0bf
00000560: 8ca8 d485 d7e4 a53f d7fb e391 d037 413f
00000570: a713 a05e b23e 31bf c157 a004 947a 91bf
00000580: dfe7 0e38 b0f6 2c3f 2622 b32f 4b08 863f
00000590: 6a32 60d7 2d3f a3bf b5f9 0620 3819 a7bf
000005a0: 5d8a f146 4ebe 093f 018e 99cc 4f3b 8bbf
000005b0: 057a b517 438c bbbf 66c5 af79 ca6b a4bf
000005c0: 1586 7d72 3bd6 bdbf b589 17dd 7355 99bf
000005d0: bbf0 6602 ff2c a03f 43a6 55df 6171 82bf
000005e0: d599 cbf8 9c2c b13f 355b 7d67 9d5a b0bf
000005f0: 7540 e662 a69a 933f 1670 1d6e 1f18 983f
00000600: f91a 0f86 d129 6f3f ad19 cff4 ce11 50bf
00000610: 5c2f 00e1 387f 0bbf fea1 5767 db95 b7bf
00000620: 2567 3743 15ec 4abf c83b 9443 3e5a 473f
00000630: 9769 4201 8905 a3bf 5541 4fe0 8722 923f
00000640: bda0 7421 59d6 83bf e080 1082 5cbc 9b3f
00000650: 734a b0bd 477e 9cbf 9018 f533 e80a 91bf
00000660: 68d9 94e7 4dcb a5bf 7428 7841 7838 60bf
00000670: bbe2 96cf d51c aa3f cfc7 4786 ba25 95bf
00000680: e4e3 45a9 dc13 90bf a064 e40d f6ac a0bf
00000690: ad02 946e fae0 7dbf c5aa e964 fe20 87bf
000006a0: 3290 1ecd ee80 613f f1b8 4910 2d81 913f
000006b0: cc7b ed0c 8782 5bbf 28a0 bc79 c84f 91bf
000006c0: 0de9 607c 4625 96bf 44be ac85 aaf9 a33f
000006d0: a350 c32b f652 853f 7e55 cd6d d609 6e3f
000006e0: 7354 797e e5f6 653f 13c2 37f6 c2ae 9d3f
000006f0: 185a 1515 b53b 8ebf 9c0d bca8 f358 56bf
00000700: a82b efa0 adac 113f 3b13 554d aac5 6fbf
00000710: 9024 e480 aec8 5dbf 8234 2703 3ba1 a6bf
00000720: e736 35bc 58d2 32bf 2183 f98c 03fc 64bf
00000730: a306 f149 a5a3 71bf 080b 800f 6334 603f
00000740: 1c6d 9ff9 4c94 423f 4115 1f5e 1c7b 8f3f
00000750: fd94 db0d 6ef6 873f 6f2e f7c8 c3a7 7e3f
00000760: 97ea a673 2ef9 803f 0b30 f82c ffc4 963f
00000770: 2d4e 4ec6 a773 943f e7e1 60d9 aa05 833f
00000780: 952e 8aab a8ea 1fbf fa45 5591 496e 93bf
00000790: d61d 28a6 90b4 3bbf 3545 389c 4b52 94bf
000007a0: ef35 6226 4402 993f d066 e287 ada2 b13f
000007b0: a3f9 9b32 38aa 99bf 839a aba9 c1c4 8e3f
000007c0: aa1d c8dd fa26 843f be99 2da9 c7c5 7a3f
000007d0: d500 5348 0793 7dbf 028b 7e05 ad2e b7bf
000007e0: d93e 1a3b 9cfb 8cbf c86b 3753 a216 61bf
000007f0: 6002 9480 72d5 a53f 5e51 37be 0ba0 793f
0.016469907262735586 -0.05108421654431966 -0.018927702633285737 -0.022389509784466834 -0.07140763540089481 -0.008864113986205324 0.0005929816503851811 0.05516120298582959
-0.04406371456105317 0.04289544956893731 -0.03584180365025517 0.07458384291158413 -0.03372310355980848 -0.05074906539082964 0.055227717855023416 0.005110287710830475
-0.05767674433880919 -0.06376947052327964 0.023521646619520522 0.0039038520400164903 1.0469506648239446e-05 -0.02665461137834065 -0.0016790041234412386 0.042055991001473385
0.07813879719567406 -2.9187726155965538e-05 0.08179233917836785 -0.0025871945851269106 0.07221285713948716 0.0489397724434558 0.04455986595000386 -0.00012077570467775286
-0.09040511537951655 -0.10241354114303818 -0.010246809237223611 0.00036026164116357944 -0.01952003140308146 -0.03636450829107274 0.00010676609414516351 0.011349449311145563
-0.0009931147272424163 -0.023662647133357615 0.0025315661548605778 0.053055486600987904 -0.01810537160165426 -0.057348732362134565 0.0023331078799362927 0.0014720887794717557
0.0017335570315012117 0.09570249917378193 0.001769640544085291 0.07579307317477217 -0.008592705105596813 -0.008872495711127616 -0.06749272752712024 0.0008288859127600402
-0.014674219797713722 -0.06122625877998461 0.0008262443370121915 -0.02187352367809957 -0.0031918745416965873 -0.04342066990407149 0.004750724740252482 -0.022451864901847685
-0.020515237662123795 -0.006214823569762817 -0.03765851785353109 0.04587446862551199 0.006963573745117047 0.04986638532602589 -0.03698865227173844 0.008492392501775569
-0.05786943464385643 0.009465938222078881 -0.0013830907979213122 0.03597112565608644 0.008231474647238729 -0.03233136605966889 -0.016681242673628905 3.217208548464137e-05
0.03358251902810314 -0.014597192264498985 0.06831482931440971 0.02003705290119796 0.04982646522628972 -0.0013725899433486518 0.02055591298257459 -0.029762682011616436
0.012418605508461909 0.048293434972081474 0.0058605364931199186 -0.015231039916713953 -0.01059954123073897 -0.013799702856849975 -0.01717855870861941 0.002336404446567766
-0.0010503063022698743 -9.117740022428528e-05 0.0011767822549462303 -0.00011159156627090366 -0.0007203717133316844 -0.08185141207872251 0.08562101855212523 -0.0843824017737066
0.03829212384737947 0.028427901853279397 -0.04571895025358566 0.03489459469998033 0.02881343578625942 0.030738592698156784 -0.05378582253107593 0.07253068476712381
0.0840852661793767 -0.021014163740584502 0.01739417792135629 0.07917469189559435 -0.035980476915102415 -0.0014623229014416477 0.0018560123298764096 0.10639633724337498
0.023800427294987842 -0.00017187454560827314 0.001402006886973595 0.01809643908870611 0.014636005608266799 -0.06895936209564013 -0.026735071209901286 0.08469615767552381
0.05473187827648045 -0.0924990805742155 0.07291042408796584 0.004367046311702535 -0.01535688468770196 -0.01776694396945433 0.04883358146217777 0.0031993926856919374
-0.07882372046390357 0.004729568684034481 0.05736340581913073 0.003578702550909919 -0.004218203740297819 0.0738316003001236 -0.0008418599091602339 0.03599683517862724
-0.06714107961199486 0.012517800285145042 0.013288106845832648 0.0021304534096519352 0.032452695168413634 0.0718701642588247 -0.0017570557061711827 0.03873197172690396
0.035372937681219074 -0.036997150733293536 -0.03686729803946044 -0.007197416436250216 0.06741692384418078 0.006808376816588888 0.023803094803627117 0.06315553650444793
0.04000136912816071 -0.011684411882418077 -0.052288866566121604 0.05602175506659786 -0.007759646853720209 -0.015903485327174005 -0.001062677789460548 -0.028032537566228033
0.018646807737664958 -0.03442067247040266 -0.03115465108301009 -0.03269772542981576 0.042761550032381995 0.0005254524619714385 -0.0002631364319543535 -0.017069161207551312
0.00022097493277134416 0.01075800647085241 -0.03759139303301569 -0.04511428252179731 4.9101604297847815e-05 -0.013296721869841656 -0.1076089795001068 -0.03988487945015144
-0.11655017419027332 -0.024740038270360382 0.03159329323122636 -0.009005322101717122 0.06708699297050853 -0.0638826730404219 0.019144630228368393 0.0235295210799081
0.003804120279230158 -0.0009808083589049985 -5.2446292215873046e-05 -0.09213038704877616 -0.0008216003247369692 0.0007126621268599359 -0.037151605037439576 0.01770984942032901
-0.009686180432780462 0.027085729063515696 -0.027825470879245317 -0.016643169566372296 -0.042566713828295744 -0.001980051874629624 0.051001245108130054 -0.02065173573095774
-0.015700767356495407 -0.0325695888479427 -0.007294634103573711 -0.011293399290669534 0.002136675270735488 0.017094329947604462 -0.0016790694096113666 -0.016905910902238613
-0.02162656911989651 0.039014176194879485 0.010412142954386921 0.0036668003144010855 0.0026812059693762046 0.028986974981252866 -0.014762320238031854 -0.0013639811976994048
6.7422959758519e-05 -0.0038784338200081015 -0.0018178657661016874 -0.04419884122362651 -0.00028719583879853325 -0.002561575827528265 -0.004306455287464014 0.001978105046874904
0.0005669952254225038 0.015371533987386445 0.011700496480850914 0.007484211716881724 0.008287775902194467 0.022235858077735354 0.01997244022238769 0.009288153418411006
-0.00012175230484439755 -0.018975400443485647 -0.00042274981947839957 -0.019845181856060285 0.02442270740771407 0.0688885170697191 -0.025063398446030793 0.01502372073214287
0.009839973347893178 0.00653627388496719 -0.007220295378999893 -0.09055596717966455 -0.014151783517518822 -0.0020859880839742863 0.04264409846837647 0.006256147261826632

LSTM.bias_ih_l0 f8 [200]
00000000: 92b2 1301 e4f5 a53f d386 ec67 74f7 9e3f
00000010: 1680 643a 3c57 b9bf c0bb 1591 a10f b83f
00000020: 81a3 3b11 26bd c13f 15c3 4a0e 203c aa3f
00000030: f38f f3f3 e4bc 84bf ef94 bed8 347b 923f
00000040: b88e 49c4 df5d b6bf af73 0d48 3e54 a03f
00000050: e832 763c 5d19 ad3f f90c 2a7c a813 bb3f
00000060: 00bb ed9e 6121 6e3f 9ded 6826 b78b 99bf
00000070: f420 0c8a cdf6 a43f 7fb7 fa84 d94a bb3f
00000080: 7449 51b0 2ab7 c33f b288 5d2f 6455 c43f
00000090: 63ca 4425 d27c c43f 9a76 4e15 c6eb c13f
000000a0: 1de2 b9ae d14f c13f 8edc d4c9 1b96 c43f
000000b0: 4fe9 b134 4fda bc3f b91b 93ce 49ef b93f
000000c0: bb9e 6772 d22f a13f d585 a9ba b5ef a83f
000000d0: 31e1 402c ffac 8f3f 7389 c0b1 a673 acbf
000000e0: 06e8 27f5 474d aabf 855a 339a 4d32 c13f
000000f0: b8a5 e5b7 2d68 b53f 52a2 cf1e 44e0 b53f
00000100: e30f b226 9a90 c53f c466 1bb8 4357 c53f
00000110: cf25 e8f7 dfc2 973f 0a01 798c e12d b3bf
00000120: 5561 b5ce 613f 9dbf 6c6e 0b13 3eee 90bf
00000130: 7ee0 1bf4 11e7 44bf a06d 304c c08e 953f
00000140: 8cee 39de 05aa b2bf 895c e459 700d 93bf
00000150: 44b5 10e3 2b56 b63f d02d e7b9 72c4 bfbf
00000160: a67f 5b7b d518 c03f 42da c01a 3445 c33f
00000170: 8ab2 67cc df64 aabf 9706 d5ab d7b8 a7bf
00000180: b9d2 bbb9 0a68 9ebf 502c 7725 585f b43f
00000190: c401 e194 8115 29bf 5f78 80cd fcce f4be
000001a0: eed5 059b cd83 a03f 7bcd abbd 9218 b23f
000001b0: c642 dbab 0d3e a13f 21af d3b1 ac40 9ebf
000001c0: 269e 7881 4247 9e3f b5c6 bbda d606 9cbf
000001d0: e62f b085 dfe7 9ebf 51ca f1c1 7f43 5abf
000001e0: 3719 0bde a4ed 623f b5c9 808a ba14 b43f
000001f0: a597 5b0f 7ceb b3bf 48e5 7ad9 99a3 be3f
00000200: 8bd5 903d 9765 74bf 5441 e027 f416 a23f
00000210: f4a3 2c9a 8817 b8bf bb2a 5d29 f24f ac3f
00000220: 10ea 02e9 dae3 8f3f 0dd7 6501 fa2b a93f
00000230: 4cce 3be5 02fe 96bf 47ae 5654 4cbc 883f
00000240: cee5 63e7 3d5e a3bf 28f6 3f22 0a2e 393f
00000250: 89ed 92d3 9ac2 a2bf e31d 6e11 b15a b4bf
00000260: 25b5 b319 caa8 98bf 5416 95b7 7e41 c03f
00000270: d7a0 2290 519e bdbf dd06 65b4 8753 b63f
00000280: c942 4b35 f593 a23f 24e9 35b8 ba73 9c3f
00000290: 8828 cceb 5897 5d3f 031b da40 d2fa bb3f
000002a0: 7884 8f40 9a40 bf3f 9ab3 e051 bf59 b3bf
000002b0: 026c e2c3 0321 8d3f d3ca ab8b 7307 b9bf
000002c0: 9acf 4e13 b166 ba3f 3dfe b3c4 b489 bdbf
000002d0: c091 5029 27d4 93bf 5b44 dd59 fa72 b73f
000002e0: 19f8 c28f b362 79bf 85c9 56fc a8c0 553f
000002f0: 78e3 f52b 76e2 98bf 25f5 448c 6069 9e3f
00000300: 5afb 75d8 a3c9 833f bafe 2658 dd52 ab3f
00000310: 6307 53f8 d1d9 a6bf 25fe e89b 4d99 be3f
00000320: 804c 1c2f ca24 c3bf 139b 2044 60f9 b63f
00000330: 673b 03b4 06dc b93f 1c1e 9cc6 ac01 a7bf
00000340: 7bae e6cd 4ae4 c23f 1eea bffd 8d55 bf3f
00000350: a4a2 e5d3 3db4 bebf 1679 fa63 67a9 763f
00000360: fd94 3cd3 00eb b6bf e624 6fd2 5795 a2bf
00000370: 994d 2682 98ee c5bf 3ec6 0225 1f8a c23f
00000380: 6f00 0e54 696d be3f 2495 285d 3478 c2bf
00000390: f51d 44cd 5087 c1bf f657 045b f36c 95bf
000003a0: 3d54 e961 8704 c33f 40e9 fc43 1ef8 b2bf
000003b0: f9c8 56dc 374d 5dbf bfd0 7843 94c0 ba3f
000003c0: d1a0 5dc0 909c c33f daab 0f6e 4235 b83f
000003d0: f498 9fd6 0d34 b53f 3787 c16d cb9c a3bf
000003e0: a8a7 f44f a904 b83f 5ab4 ab44 b5d5 c1bf
000003f0: 5aab f396 0083 c3bf 8668 3451 4dad b43f
00000400: 3fc2 bbed d773 a03f 84a2 cd05 f8f8 c1bf
00000410: 4f54 9002 01b9 c43f 21fe f409 d381 b33f
00000420: bee0 655d dc9b af3f b0e9 de3e 50a6 a2bf
00000430: 4276 fc59 ee11 ac3f 3ebc 6640 3735 b8bf
00000440: f598 1c03 adfc b0bf 89de 0d53 56f7 97bf
00000450: 6026 8c8b 63f6 a4bf 67ee 801d a2c7 9a3f
00000460: ed07 1f84 91fe 83bf 7d07 fede 116c bd3f
00000470: 930d 0b18 9edc aabf 44e9 fcf8 6b63 b23f
00000480: 715b 9624 fd38 b0bf e80a 45c0 c2aa ba3f
00000490: 2035 0a81 3062 b83f 1973 919b a7fd b43f
000004a0: 25c8 983a 5469 c4bf 7106 35ef 96ab c5bf
000004b0: 2b27 9d96 9ba4 693f 1184 54f5 7bc0 98bf
000004c0: e3c2 03f2 13aa c13f 0bf6 bac5 b266 a0bf
000004d0: e459 c09a 1b54 9c3f 65ba c9d8 1f8a b63f
000004e0: aacf 5cf0 5dcc af3f 88b3 17dd 4c02 b43f
000004f0: a42f e335 0259 62bf 7cf3 4a38 b5ff 80bf
00000500: c5c6 c168 59a3 9fbf aed6 ecac adb4 873f
00000510: 22c8 6b93 502e b73f 0554 20c0 9019 b23f
00000520: 62b8 9e44 78ee 79bf b82a eb09 3606 943f
00000530: f7be bf9b 0f5e b03f 1f19 8779 a5c2 c53f
00000540: d5a8 0813 bc4f be3f 7114 305b 1788 ba3f
00000550: d52c 42f8 cf59 5c3f 039a 8d12 4761 b63f
00000560: 0aa3 91d1 062b aebf e845 388f e1b1 a13f
00000570: 9e9e d914 8670 b8bf 4510 9fae e589 a4bf
00000580: 5327 501a d507 bbbf a9d9 673c b398 6e3f
00000590: 384b 7f84 fb44 babf 5777 235b 6364 ba3f
000005a0: 08bf 7d56 c0e4 ae3f 2066 04c4 6910 463f
000005b0: f1b3 11c7 74d7 bd3f 6c4e c58a e42c b23f
000005c0: c5b3 a46c 8f88 bf3f 1170 3704 069b a8bf
000005d0: ccab b11f 634e c93f aa97 a65d 312c b7bf
000005e0: 6e7f f637 6f03 bd3f 5c42 431e b915 b13f
000005f0: ac46 c047 8cad b4bf e0be 473d 7c1f a1bf
00000600: 635c a998 9e54 c13f 49db d1a4 a8e0 943f
00000610: ee61 f41b 9817 a9bf df42 30e4 5876 c53f
00000620: 7978 7426 96b7 adbf b07c 707e c164 41bf
00000630: 4ce4 dc24 aaf2 a7bf 0f8e d114 5f74 8c3f
0.04289162171503337 0.03024083980847687 -0.09898735452270588 0.09398851196395608 0.13858486024335195 0.05123996901000375 -0.010125912375265477 0.01804812024024199
-0.08736990492030372 0.03189272527263342 0.05683413851793323 0.10576870948175444 0.003678026834158188 -0.02494703456816937 0.040945456601606894 0.1066108655602118
0.15402730569128276 0.15885593712579787 0.16005923099290262 0.14000774422031698 0.13524838477657478 0.1608309493546795 0.11270613705156517 0.10130749982191291
0.03356797834913779 0.04870384124366082 0.015466683900840468 -0.05556984824967772 -0.05137085788369693 0.1343476298267953 0.08362088908838572 0.08545327903960612
0.16847540749961273 0.16672560205079467 0.023204326158553997 -0.07491883925922962 -0.02856209587238941 -0.01653382292975751 -0.0006378972686596066 0.0210523649694615
-0.07290684390494045 -0.018605952726912043 0.08725237172685235 -0.1240913108696795 0.1257578708964477 0.1505494242316719 -0.051550859166899235 -0.04633211109695628
-0.029693763338360244 0.07957983889279885 -0.00019137579733020775 -1.9844574893672684e-05 0.03225557820671186 0.07068745737688246 0.033676554897856856 -0.029543588975612715
0.029568709518711732 -0.027369839764054677 -0.030181400808984814 -0.0016030070908327374 0.002310583120876643 0.07844129449293898 -0.07781195998140207 0.11968385276386073
-0.004979697020691796 0.0353313730885271 -0.09410909427664632 0.055297439145382175 0.015571317897742382 0.049163639708167485 -0.022453351250943762 0.012077900241670337
-0.037828382964970694 0.00038421389967866143 -0.03664096672715817 -0.07950884509602178 -0.024081380671238457 0.12699874843581205 -0.11569700020720873 0.08721206812063138
0.03628507876931548 0.027785222523996414 0.001806103550907186 0.10929597934055484 0.12207950664698497 -0.07558818577736162 0.014223126807612733 -0.09776994857729031
0.10312945100196061 -0.11538247873613101 -0.019363986870432504 0.09159817403748731 -0.006197644626977827 0.0013276720286340149 -0.024301382477890127 0.029698856889116904
0.009661941569672972 0.053366581927091386 -0.04463058620741724 0.11952672058486564 -0.14956023502654503 0.08974267638459947 0.10101358313407403 -0.04493465351520973
0.14759192518009798 0.12239921040592391 -0.11993776725069921 0.005532649869250747 -0.0895233646120523 -0.036295647084964064 -0.17134386401140203 0.14484013850374028
0.11885698606602245 -0.14429335163837564 -0.1369420053745071 -0.020923426084742368 0.1485757091601573 -0.07409848365651772 -0.0017884297861710515 0.10450102469696086
0.15321549790247116 0.09456267535249144 0.08282553186254288 -0.03830562319559621 0.09382112695735023 -0.1393343529993299 -0.15243537302680005 0.08076937897240741
0.03213381554622118 -0.1404104259811626 0.16189587235627065 0.07619971268740545 0.06173599853622268 -0.03642512099709749 0.054824303135529565 -0.09456200907037357
-0.06635552717179734 -0.02340445405886141 -0.04094229773006641 0.02615216546131052 -0.009762894482154361 0.11493026441715233 -0.05246442836280631 0.07182955578619948
-0.06336958068128042 0.10416810220798889 0.09524825239551094 0.0819954638295254 -0.15946438656971043 -0.1692989986423075 0.0031302489123036423 -0.024171768997920454
0.13800286595462471 -0.03203352607441098 0.0276645959093801 0.08804511110950271 0.062106071082239936 0.07816009900825638 -0.0022397082494531474 -0.008300224094790691
-0.030896565455299525 0.011575085487133787 0.0905504569925886 0.07070259752829607 -0.00633093814569294 0.01955494342363792 0.06393525650468833 0.1700026362797837
0.11840415444081327 0.10363908745064677 0.0017303973154721337 0.08742183878857905 -0.05892201717580832 0.03456025002754953 -0.09546697625193665 -0.04011457211120776
-0.10558826343927068 0.0037349224760376454 -0.10261508927150664 0.10309430098592763 0.06033898406792387 0.0006733433183711592 0.11656885013663022 0.07099750888783668
0.1231774940722082 -0.04805773545714954 0.19770468757209725 -0.0905180791511088 0.11333365551263139 0.06673771847568716 -0.08077313186393081 -0.03344333885240558
0.13539488271883035 0.02038825517635282 -0.04900813428156768 0.16767417089479061 -0.05804127902432383 -0.000530809859700462 -0.04677325916276995 0.013893835852463203
